node {
  name: "enc_batch"
  op: "Placeholder"
  attr {
    key: "_output_shapes"
    value {
      list {
        shape {
          dim {
            size: 2
          }
          dim {
            size: -1
          }
        }
      }
    }
  }
  attr {
    key: "dtype"
    value {
      type: DT_INT32
    }
  }
  attr {
    key: "shape"
    value {
      shape {
        dim {
          size: 2
        }
        dim {
          size: -1
        }
      }
    }
  }
}
node {
  name: "enc_padding_mask"
  op: "Placeholder"
  attr {
    key: "_output_shapes"
    value {
      list {
        shape {
          dim {
            size: 2
          }
          dim {
            size: -1
          }
        }
      }
    }
  }
  attr {
    key: "dtype"
    value {
      type: DT_FLOAT
    }
  }
  attr {
    key: "shape"
    value {
      shape {
        dim {
          size: 2
        }
        dim {
          size: -1
        }
      }
    }
  }
}
node {
  name: "enc_batch_sections"
  op: "Placeholder"
  attr {
    key: "_output_shapes"
    value {
      list {
        shape {
          dim {
            size: 2
          }
          dim {
            size: 1
          }
          dim {
            size: -1
          }
        }
      }
    }
  }
  attr {
    key: "dtype"
    value {
      type: DT_INT32
    }
  }
  attr {
    key: "shape"
    value {
      shape {
        dim {
          size: 2
        }
        dim {
          size: 1
        }
        dim {
          size: -1
        }
      }
    }
  }
}
node {
  name: "Placeholder"
  op: "Placeholder"
  attr {
    key: "_output_shapes"
    value {
      list {
        shape {
          dim {
            size: 2
          }
        }
      }
    }
  }
  attr {
    key: "dtype"
    value {
      type: DT_INT32
    }
  }
  attr {
    key: "shape"
    value {
      shape {
        dim {
          size: 2
        }
      }
    }
  }
}
node {
  name: "Placeholder_1"
  op: "Placeholder"
  attr {
    key: "_output_shapes"
    value {
      list {
        shape {
          dim {
            size: 2
          }
          dim {
            size: 1
          }
        }
      }
    }
  }
  attr {
    key: "dtype"
    value {
      type: DT_INT32
    }
  }
  attr {
    key: "shape"
    value {
      shape {
        dim {
          size: 2
        }
        dim {
          size: 1
        }
      }
    }
  }
}
node {
  name: "enc_section_padding_mask"
  op: "Placeholder"
  attr {
    key: "_output_shapes"
    value {
      list {
        shape {
          dim {
            size: 2
          }
          dim {
            size: 1
          }
          dim {
            size: -1
          }
        }
      }
    }
  }
  attr {
    key: "dtype"
    value {
      type: DT_INT32
    }
  }
  attr {
    key: "shape"
    value {
      shape {
        dim {
          size: 2
        }
        dim {
          size: 1
        }
        dim {
          size: -1
        }
      }
    }
  }
}
node {
  name: "enc_lens"
  op: "Placeholder"
  attr {
    key: "_output_shapes"
    value {
      list {
        shape {
          dim {
            size: 2
          }
        }
      }
    }
  }
  attr {
    key: "dtype"
    value {
      type: DT_INT32
    }
  }
  attr {
    key: "shape"
    value {
      shape {
        dim {
          size: 2
        }
      }
    }
  }
}
node {
  name: "enc_batch_extend_vocab"
  op: "Placeholder"
  attr {
    key: "_output_shapes"
    value {
      list {
        shape {
          dim {
            size: 2
          }
          dim {
            size: -1
          }
        }
      }
    }
  }
  attr {
    key: "dtype"
    value {
      type: DT_INT32
    }
  }
  attr {
    key: "shape"
    value {
      shape {
        dim {
          size: 2
        }
        dim {
          size: -1
        }
      }
    }
  }
}
node {
  name: "max_art_oovs"
  op: "Placeholder"
  attr {
    key: "_output_shapes"
    value {
      list {
        shape {
        }
      }
    }
  }
  attr {
    key: "dtype"
    value {
      type: DT_INT32
    }
  }
  attr {
    key: "shape"
    value {
      shape {
      }
    }
  }
}
node {
  name: "dec_batch"
  op: "Placeholder"
  attr {
    key: "_output_shapes"
    value {
      list {
        shape {
          dim {
            size: 2
          }
          dim {
            size: 1
          }
        }
      }
    }
  }
  attr {
    key: "dtype"
    value {
      type: DT_INT32
    }
  }
  attr {
    key: "shape"
    value {
      shape {
        dim {
          size: 2
        }
        dim {
          size: 1
        }
      }
    }
  }
}
node {
  name: "target_batch"
  op: "Placeholder"
  attr {
    key: "_output_shapes"
    value {
      list {
        shape {
          dim {
            size: 2
          }
          dim {
            size: 1
          }
        }
      }
    }
  }
  attr {
    key: "dtype"
    value {
      type: DT_INT32
    }
  }
  attr {
    key: "shape"
    value {
      shape {
        dim {
          size: 2
        }
        dim {
          size: 1
        }
      }
    }
  }
}
node {
  name: "padding_mask"
  op: "Placeholder"
  attr {
    key: "_output_shapes"
    value {
      list {
        shape {
          dim {
            size: 2
          }
          dim {
            size: 1
          }
        }
      }
    }
  }
  attr {
    key: "dtype"
    value {
      type: DT_FLOAT
    }
  }
  attr {
    key: "shape"
    value {
      shape {
        dim {
          size: 2
        }
        dim {
          size: 1
        }
      }
    }
  }
}
node {
  name: "seq2seq/embedding/embedding/Initializer/truncated_normal/shape"
  op: "Const"
  attr {
    key: "_class"
    value {
      list {
        s: "loc:@seq2seq/embedding/embedding"
      }
    }
  }
  attr {
    key: "_output_shapes"
    value {
      list {
        shape {
          dim {
            size: 2
          }
        }
      }
    }
  }
  attr {
    key: "dtype"
    value {
      type: DT_INT32
    }
  }
  attr {
    key: "value"
    value {
      tensor {
        dtype: DT_INT32
        tensor_shape {
          dim {
            size: 2
          }
        }
        tensor_content: "2\000\000\000\n\000\000\000"
      }
    }
  }
}
node {
  name: "seq2seq/embedding/embedding/Initializer/truncated_normal/mean"
  op: "Const"
  attr {
    key: "_class"
    value {
      list {
        s: "loc:@seq2seq/embedding/embedding"
      }
    }
  }
  attr {
    key: "_output_shapes"
    value {
      list {
        shape {
        }
      }
    }
  }
  attr {
    key: "dtype"
    value {
      type: DT_FLOAT
    }
  }
  attr {
    key: "value"
    value {
      tensor {
        dtype: DT_FLOAT
        tensor_shape {
        }
        float_val: 0.0
      }
    }
  }
}
node {
  name: "seq2seq/embedding/embedding/Initializer/truncated_normal/stddev"
  op: "Const"
  attr {
    key: "_class"
    value {
      list {
        s: "loc:@seq2seq/embedding/embedding"
      }
    }
  }
  attr {
    key: "_output_shapes"
    value {
      list {
        shape {
        }
      }
    }
  }
  attr {
    key: "dtype"
    value {
      type: DT_FLOAT
    }
  }
  attr {
    key: "value"
    value {
      tensor {
        dtype: DT_FLOAT
        tensor_shape {
        }
        float_val: 9.999999747378752e-05
      }
    }
  }
}
node {
  name: "seq2seq/embedding/embedding/Initializer/truncated_normal/TruncatedNormal"
  op: "TruncatedNormal"
  input: "seq2seq/embedding/embedding/Initializer/truncated_normal/shape"
  attr {
    key: "T"
    value {
      type: DT_INT32
    }
  }
  attr {
    key: "_class"
    value {
      list {
        s: "loc:@seq2seq/embedding/embedding"
      }
    }
  }
  attr {
    key: "_output_shapes"
    value {
      list {
        shape {
          dim {
            size: 50
          }
          dim {
            size: 10
          }
        }
      }
    }
  }
  attr {
    key: "dtype"
    value {
      type: DT_FLOAT
    }
  }
  attr {
    key: "seed"
    value {
      i: 111
    }
  }
  attr {
    key: "seed2"
    value {
      i: 15
    }
  }
}
node {
  name: "seq2seq/embedding/embedding/Initializer/truncated_normal/mul"
  op: "Mul"
  input: "seq2seq/embedding/embedding/Initializer/truncated_normal/TruncatedNormal"
  input: "seq2seq/embedding/embedding/Initializer/truncated_normal/stddev"
  attr {
    key: "T"
    value {
      type: DT_FLOAT
    }
  }
  attr {
    key: "_class"
    value {
      list {
        s: "loc:@seq2seq/embedding/embedding"
      }
    }
  }
  attr {
    key: "_output_shapes"
    value {
      list {
        shape {
          dim {
            size: 50
          }
          dim {
            size: 10
          }
        }
      }
    }
  }
}
node {
  name: "seq2seq/embedding/embedding/Initializer/truncated_normal"
  op: "Add"
  input: "seq2seq/embedding/embedding/Initializer/truncated_normal/mul"
  input: "seq2seq/embedding/embedding/Initializer/truncated_normal/mean"
  attr {
    key: "T"
    value {
      type: DT_FLOAT
    }
  }
  attr {
    key: "_class"
    value {
      list {
        s: "loc:@seq2seq/embedding/embedding"
      }
    }
  }
  attr {
    key: "_output_shapes"
    value {
      list {
        shape {
          dim {
            size: 50
          }
          dim {
            size: 10
          }
        }
      }
    }
  }
}
node {
  name: "seq2seq/embedding/embedding"
  op: "VariableV2"
  device: "/device:GPU:0"
  attr {
    key: "_class"
    value {
      list {
        s: "loc:@seq2seq/embedding/embedding"
      }
    }
  }
  attr {
    key: "_output_shapes"
    value {
      list {
        shape {
          dim {
            size: 50
          }
          dim {
            size: 10
          }
        }
      }
    }
  }
  attr {
    key: "container"
    value {
      s: ""
    }
  }
  attr {
    key: "dtype"
    value {
      type: DT_FLOAT
    }
  }
  attr {
    key: "shape"
    value {
      shape {
        dim {
          size: 50
        }
        dim {
          size: 10
        }
      }
    }
  }
  attr {
    key: "shared_name"
    value {
      s: ""
    }
  }
}
node {
  name: "seq2seq/embedding/embedding/Assign"
  op: "Assign"
  input: "seq2seq/embedding/embedding"
  input: "seq2seq/embedding/embedding/Initializer/truncated_normal"
  device: "/device:GPU:0"
  attr {
    key: "T"
    value {
      type: DT_FLOAT
    }
  }
  attr {
    key: "_class"
    value {
      list {
        s: "loc:@seq2seq/embedding/embedding"
      }
    }
  }
  attr {
    key: "_output_shapes"
    value {
      list {
        shape {
          dim {
            size: 50
          }
          dim {
            size: 10
          }
        }
      }
    }
  }
  attr {
    key: "use_locking"
    value {
      b: true
    }
  }
  attr {
    key: "validate_shape"
    value {
      b: true
    }
  }
}
node {
  name: "seq2seq/embedding/embedding/read"
  op: "Identity"
  input: "seq2seq/embedding/embedding"
  device: "/device:GPU:0"
  attr {
    key: "T"
    value {
      type: DT_FLOAT
    }
  }
  attr {
    key: "_class"
    value {
      list {
        s: "loc:@seq2seq/embedding/embedding"
      }
    }
  }
  attr {
    key: "_output_shapes"
    value {
      list {
        shape {
          dim {
            size: 50
          }
          dim {
            size: 10
          }
        }
      }
    }
  }
}
node {
  name: "seq2seq/embedding/embedding_lookup/axis"
  op: "Const"
  device: "/device:GPU:0"
  attr {
    key: "_class"
    value {
      list {
        s: "loc:@seq2seq/embedding/embedding"
      }
    }
  }
  attr {
    key: "_output_shapes"
    value {
      list {
        shape {
        }
      }
    }
  }
  attr {
    key: "dtype"
    value {
      type: DT_INT32
    }
  }
  attr {
    key: "value"
    value {
      tensor {
        dtype: DT_INT32
        tensor_shape {
        }
        int_val: 0
      }
    }
  }
}
node {
  name: "seq2seq/embedding/embedding_lookup"
  op: "GatherV2"
  input: "seq2seq/embedding/embedding/read"
  input: "enc_batch"
  input: "seq2seq/embedding/embedding_lookup/axis"
  device: "/device:GPU:0"
  attr {
    key: "Taxis"
    value {
      type: DT_INT32
    }
  }
  attr {
    key: "Tindices"
    value {
      type: DT_INT32
    }
  }
  attr {
    key: "Tparams"
    value {
      type: DT_FLOAT
    }
  }
  attr {
    key: "_class"
    value {
      list {
        s: "loc:@seq2seq/embedding/embedding"
      }
    }
  }
  attr {
    key: "_output_shapes"
    value {
      list {
        shape {
          dim {
            size: 2
          }
          dim {
            size: -1
          }
          dim {
            size: 10
          }
        }
      }
    }
  }
  attr {
    key: "batch_dims"
    value {
      i: 0
    }
  }
}
node {
  name: "seq2seq/embedding/embedding_lookup/Identity"
  op: "Identity"
  input: "seq2seq/embedding/embedding_lookup"
  device: "/device:GPU:0"
  attr {
    key: "T"
    value {
      type: DT_FLOAT
    }
  }
  attr {
    key: "_output_shapes"
    value {
      list {
        shape {
          dim {
            size: 2
          }
          dim {
            size: -1
          }
          dim {
            size: 10
          }
        }
      }
    }
  }
}
node {
  name: "seq2seq/embedding/unstack"
  op: "Unpack"
  input: "enc_batch_sections"
  device: "/device:GPU:0"
  attr {
    key: "T"
    value {
      type: DT_INT32
    }
  }
  attr {
    key: "_output_shapes"
    value {
      list {
        shape {
          dim {
            size: 2
          }
          dim {
            size: -1
          }
        }
      }
    }
  }
  attr {
    key: "axis"
    value {
      i: 1
    }
  }
  attr {
    key: "num"
    value {
      i: 1
    }
  }
}
node {
  name: "seq2seq/embedding/embedding_lookup_1/axis"
  op: "Const"
  device: "/device:GPU:0"
  attr {
    key: "_class"
    value {
      list {
        s: "loc:@seq2seq/embedding/embedding"
      }
    }
  }
  attr {
    key: "_output_shapes"
    value {
      list {
        shape {
        }
      }
    }
  }
  attr {
    key: "dtype"
    value {
      type: DT_INT32
    }
  }
  attr {
    key: "value"
    value {
      tensor {
        dtype: DT_INT32
        tensor_shape {
        }
        int_val: 0
      }
    }
  }
}
node {
  name: "seq2seq/embedding/embedding_lookup_1"
  op: "GatherV2"
  input: "seq2seq/embedding/embedding/read"
  input: "seq2seq/embedding/unstack"
  input: "seq2seq/embedding/embedding_lookup_1/axis"
  device: "/device:GPU:0"
  attr {
    key: "Taxis"
    value {
      type: DT_INT32
    }
  }
  attr {
    key: "Tindices"
    value {
      type: DT_INT32
    }
  }
  attr {
    key: "Tparams"
    value {
      type: DT_FLOAT
    }
  }
  attr {
    key: "_class"
    value {
      list {
        s: "loc:@seq2seq/embedding/embedding"
      }
    }
  }
  attr {
    key: "_output_shapes"
    value {
      list {
        shape {
          dim {
            size: 2
          }
          dim {
            size: -1
          }
          dim {
            size: 10
          }
        }
      }
    }
  }
  attr {
    key: "batch_dims"
    value {
      i: 0
    }
  }
}
node {
  name: "seq2seq/embedding/embedding_lookup_1/Identity"
  op: "Identity"
  input: "seq2seq/embedding/embedding_lookup_1"
  device: "/device:GPU:0"
  attr {
    key: "T"
    value {
      type: DT_FLOAT
    }
  }
  attr {
    key: "_output_shapes"
    value {
      list {
        shape {
          dim {
            size: 2
          }
          dim {
            size: -1
          }
          dim {
            size: 10
          }
        }
      }
    }
  }
}
node {
  name: "seq2seq/embedding/unstack_1"
  op: "Unpack"
  input: "dec_batch"
  device: "/device:GPU:0"
  attr {
    key: "T"
    value {
      type: DT_INT32
    }
  }
  attr {
    key: "_output_shapes"
    value {
      list {
        shape {
          dim {
            size: 2
          }
        }
      }
    }
  }
  attr {
    key: "axis"
    value {
      i: 1
    }
  }
  attr {
    key: "num"
    value {
      i: 1
    }
  }
}
node {
  name: "seq2seq/embedding/embedding_lookup_2/axis"
  op: "Const"
  device: "/device:GPU:0"
  attr {
    key: "_class"
    value {
      list {
        s: "loc:@seq2seq/embedding/embedding"
      }
    }
  }
  attr {
    key: "_output_shapes"
    value {
      list {
        shape {
        }
      }
    }
  }
  attr {
    key: "dtype"
    value {
      type: DT_INT32
    }
  }
  attr {
    key: "value"
    value {
      tensor {
        dtype: DT_INT32
        tensor_shape {
        }
        int_val: 0
      }
    }
  }
}
node {
  name: "seq2seq/embedding/embedding_lookup_2"
  op: "GatherV2"
  input: "seq2seq/embedding/embedding/read"
  input: "seq2seq/embedding/unstack_1"
  input: "seq2seq/embedding/embedding_lookup_2/axis"
  device: "/device:GPU:0"
  attr {
    key: "Taxis"
    value {
      type: DT_INT32
    }
  }
  attr {
    key: "Tindices"
    value {
      type: DT_INT32
    }
  }
  attr {
    key: "Tparams"
    value {
      type: DT_FLOAT
    }
  }
  attr {
    key: "_class"
    value {
      list {
        s: "loc:@seq2seq/embedding/embedding"
      }
    }
  }
  attr {
    key: "_output_shapes"
    value {
      list {
        shape {
          dim {
            size: 2
          }
          dim {
            size: 10
          }
        }
      }
    }
  }
  attr {
    key: "batch_dims"
    value {
      i: 0
    }
  }
}
node {
  name: "seq2seq/embedding/embedding_lookup_2/Identity"
  op: "Identity"
  input: "seq2seq/embedding/embedding_lookup_2"
  device: "/device:GPU:0"
  attr {
    key: "T"
    value {
      type: DT_FLOAT
    }
  }
  attr {
    key: "_output_shapes"
    value {
      list {
        shape {
          dim {
            size: 2
          }
          dim {
            size: 10
          }
        }
      }
    }
  }
}
node {
  name: "seq2seq/encoder/word_level_encoder/DropoutWrapperInit/Const"
  op: "Const"
  device: "/device:GPU:0"
  attr {
    key: "_output_shapes"
    value {
      list {
        shape {
        }
      }
    }
  }
  attr {
    key: "dtype"
    value {
      type: DT_FLOAT
    }
  }
  attr {
    key: "value"
    value {
      tensor {
        dtype: DT_FLOAT
        tensor_shape {
        }
        float_val: 1.0
      }
    }
  }
}
node {
  name: "seq2seq/encoder/word_level_encoder/DropoutWrapperInit/Const_1"
  op: "Const"
  device: "/device:GPU:0"
  attr {
    key: "_output_shapes"
    value {
      list {
        shape {
        }
      }
    }
  }
  attr {
    key: "dtype"
    value {
      type: DT_FLOAT
    }
  }
  attr {
    key: "value"
    value {
      tensor {
        dtype: DT_FLOAT
        tensor_shape {
        }
        float_val: 1.0
      }
    }
  }
}
node {
  name: "seq2seq/encoder/word_level_encoder/DropoutWrapperInit/Const_2"
  op: "Const"
  device: "/device:GPU:0"
  attr {
    key: "_output_shapes"
    value {
      list {
        shape {
        }
      }
    }
  }
  attr {
    key: "dtype"
    value {
      type: DT_FLOAT
    }
  }
  attr {
    key: "value"
    value {
      tensor {
        dtype: DT_FLOAT
        tensor_shape {
        }
        float_val: 0.75
      }
    }
  }
}
node {
  name: "seq2seq/encoder/word_level_encoder/DropoutWrapperInit_1/Const"
  op: "Const"
  device: "/device:GPU:0"
  attr {
    key: "_output_shapes"
    value {
      list {
        shape {
        }
      }
    }
  }
  attr {
    key: "dtype"
    value {
      type: DT_FLOAT
    }
  }
  attr {
    key: "value"
    value {
      tensor {
        dtype: DT_FLOAT
        tensor_shape {
        }
        float_val: 1.0
      }
    }
  }
}
node {
  name: "seq2seq/encoder/word_level_encoder/DropoutWrapperInit_1/Const_1"
  op: "Const"
  device: "/device:GPU:0"
  attr {
    key: "_output_shapes"
    value {
      list {
        shape {
        }
      }
    }
  }
  attr {
    key: "dtype"
    value {
      type: DT_FLOAT
    }
  }
  attr {
    key: "value"
    value {
      tensor {
        dtype: DT_FLOAT
        tensor_shape {
        }
        float_val: 1.0
      }
    }
  }
}
node {
  name: "seq2seq/encoder/word_level_encoder/DropoutWrapperInit_1/Const_2"
  op: "Const"
  device: "/device:GPU:0"
  attr {
    key: "_output_shapes"
    value {
      list {
        shape {
        }
      }
    }
  }
  attr {
    key: "dtype"
    value {
      type: DT_FLOAT
    }
  }
  attr {
    key: "value"
    value {
      tensor {
        dtype: DT_FLOAT
        tensor_shape {
        }
        float_val: 0.75
      }
    }
  }
}
node {
  name: "seq2seq/encoder/word_level_encoder/strided_slice/stack"
  op: "Const"
  device: "/device:GPU:0"
  attr {
    key: "_output_shapes"
    value {
      list {
        shape {
          dim {
            size: 2
          }
        }
      }
    }
  }
  attr {
    key: "dtype"
    value {
      type: DT_INT32
    }
  }
  attr {
    key: "value"
    value {
      tensor {
        dtype: DT_INT32
        tensor_shape {
          dim {
            size: 2
          }
        }
        tensor_content: "\000\000\000\000\000\000\000\000"
      }
    }
  }
}
node {
  name: "seq2seq/encoder/word_level_encoder/strided_slice/stack_1"
  op: "Const"
  device: "/device:GPU:0"
  attr {
    key: "_output_shapes"
    value {
      list {
        shape {
          dim {
            size: 2
          }
        }
      }
    }
  }
  attr {
    key: "dtype"
    value {
      type: DT_INT32
    }
  }
  attr {
    key: "value"
    value {
      tensor {
        dtype: DT_INT32
        tensor_shape {
          dim {
            size: 2
          }
        }
        tensor_content: "\000\000\000\000\001\000\000\000"
      }
    }
  }
}
node {
  name: "seq2seq/encoder/word_level_encoder/strided_slice/stack_2"
  op: "Const"
  device: "/device:GPU:0"
  attr {
    key: "_output_shapes"
    value {
      list {
        shape {
          dim {
            size: 2
          }
        }
      }
    }
  }
  attr {
    key: "dtype"
    value {
      type: DT_INT32
    }
  }
  attr {
    key: "value"
    value {
      tensor {
        dtype: DT_INT32
        tensor_shape {
          dim {
            size: 2
          }
        }
        tensor_content: "\001\000\000\000\001\000\000\000"
      }
    }
  }
}
node {
  name: "seq2seq/encoder/word_level_encoder/strided_slice"
  op: "StridedSlice"
  input: "Placeholder_1"
  input: "seq2seq/encoder/word_level_encoder/strided_slice/stack"
  input: "seq2seq/encoder/word_level_encoder/strided_slice/stack_1"
  input: "seq2seq/encoder/word_level_encoder/strided_slice/stack_2"
  device: "/device:GPU:0"
  attr {
    key: "Index"
    value {
      type: DT_INT32
    }
  }
  attr {
    key: "T"
    value {
      type: DT_INT32
    }
  }
  attr {
    key: "_output_shapes"
    value {
      list {
        shape {
          dim {
            size: 2
          }
        }
      }
    }
  }
  attr {
    key: "begin_mask"
    value {
      i: 1
    }
  }
  attr {
    key: "ellipsis_mask"
    value {
      i: 0
    }
  }
  attr {
    key: "end_mask"
    value {
      i: 1
    }
  }
  attr {
    key: "new_axis_mask"
    value {
      i: 0
    }
  }
  attr {
    key: "shrink_axis_mask"
    value {
      i: 2
    }
  }
}
node {
  name: "seq2seq/encoder/word_level_encoder/bidirectional_rnn/fw/fw/Rank"
  op: "Const"
  device: "/device:GPU:0"
  attr {
    key: "_output_shapes"
    value {
      list {
        shape {
        }
      }
    }
  }
  attr {
    key: "dtype"
    value {
      type: DT_INT32
    }
  }
  attr {
    key: "value"
    value {
      tensor {
        dtype: DT_INT32
        tensor_shape {
        }
        int_val: 3
      }
    }
  }
}
node {
  name: "seq2seq/encoder/word_level_encoder/bidirectional_rnn/fw/fw/range/start"
  op: "Const"
  device: "/device:GPU:0"
  attr {
    key: "_output_shapes"
    value {
      list {
        shape {
        }
      }
    }
  }
  attr {
    key: "dtype"
    value {
      type: DT_INT32
    }
  }
  attr {
    key: "value"
    value {
      tensor {
        dtype: DT_INT32
        tensor_shape {
        }
        int_val: 2
      }
    }
  }
}
node {
  name: "seq2seq/encoder/word_level_encoder/bidirectional_rnn/fw/fw/range/delta"
  op: "Const"
  device: "/device:GPU:0"
  attr {
    key: "_output_shapes"
    value {
      list {
        shape {
        }
      }
    }
  }
  attr {
    key: "dtype"
    value {
      type: DT_INT32
    }
  }
  attr {
    key: "value"
    value {
      tensor {
        dtype: DT_INT32
        tensor_shape {
        }
        int_val: 1
      }
    }
  }
}
node {
  name: "seq2seq/encoder/word_level_encoder/bidirectional_rnn/fw/fw/range"
  op: "Range"
  input: "seq2seq/encoder/word_level_encoder/bidirectional_rnn/fw/fw/range/start"
  input: "seq2seq/encoder/word_level_encoder/bidirectional_rnn/fw/fw/Rank"
  input: "seq2seq/encoder/word_level_encoder/bidirectional_rnn/fw/fw/range/delta"
  device: "/device:GPU:0"
  attr {
    key: "Tidx"
    value {
      type: DT_INT32
    }
  }
  attr {
    key: "_output_shapes"
    value {
      list {
        shape {
          dim {
            size: 1
          }
        }
      }
    }
  }
}
node {
  name: "seq2seq/encoder/word_level_encoder/bidirectional_rnn/fw/fw/concat/values_0"
  op: "Const"
  device: "/device:GPU:0"
  attr {
    key: "_output_shapes"
    value {
      list {
        shape {
          dim {
            size: 2
          }
        }
      }
    }
  }
  attr {
    key: "dtype"
    value {
      type: DT_INT32
    }
  }
  attr {
    key: "value"
    value {
      tensor {
        dtype: DT_INT32
        tensor_shape {
          dim {
            size: 2
          }
        }
        tensor_content: "\001\000\000\000\000\000\000\000"
      }
    }
  }
}
node {
  name: "seq2seq/encoder/word_level_encoder/bidirectional_rnn/fw/fw/concat/axis"
  op: "Const"
  device: "/device:GPU:0"
  attr {
    key: "_output_shapes"
    value {
      list {
        shape {
        }
      }
    }
  }
  attr {
    key: "dtype"
    value {
      type: DT_INT32
    }
  }
  attr {
    key: "value"
    value {
      tensor {
        dtype: DT_INT32
        tensor_shape {
        }
        int_val: 0
      }
    }
  }
}
node {
  name: "seq2seq/encoder/word_level_encoder/bidirectional_rnn/fw/fw/concat"
  op: "ConcatV2"
  input: "seq2seq/encoder/word_level_encoder/bidirectional_rnn/fw/fw/concat/values_0"
  input: "seq2seq/encoder/word_level_encoder/bidirectional_rnn/fw/fw/range"
  input: "seq2seq/encoder/word_level_encoder/bidirectional_rnn/fw/fw/concat/axis"
  device: "/device:GPU:0"
  attr {
    key: "N"
    value {
      i: 2
    }
  }
  attr {
    key: "T"
    value {
      type: DT_INT32
    }
  }
  attr {
    key: "Tidx"
    value {
      type: DT_INT32
    }
  }
  attr {
    key: "_output_shapes"
    value {
      list {
        shape {
          dim {
            size: 3
          }
        }
      }
    }
  }
}
node {
  name: "seq2seq/encoder/word_level_encoder/bidirectional_rnn/fw/fw/transpose"
  op: "Transpose"
  input: "seq2seq/embedding/embedding_lookup_1/Identity"
  input: "seq2seq/encoder/word_level_encoder/bidirectional_rnn/fw/fw/concat"
  device: "/device:GPU:0"
  attr {
    key: "T"
    value {
      type: DT_FLOAT
    }
  }
  attr {
    key: "Tperm"
    value {
      type: DT_INT32
    }
  }
  attr {
    key: "_output_shapes"
    value {
      list {
        shape {
          dim {
            size: -1
          }
          dim {
            size: 2
          }
          dim {
            size: 10
          }
        }
      }
    }
  }
}
node {
  name: "seq2seq/encoder/word_level_encoder/bidirectional_rnn/fw/fw/sequence_length"
  op: "Identity"
  input: "seq2seq/encoder/word_level_encoder/strided_slice"
  device: "/device:GPU:0"
  attr {
    key: "T"
    value {
      type: DT_INT32
    }
  }
  attr {
    key: "_output_shapes"
    value {
      list {
        shape {
          dim {
            size: 2
          }
        }
      }
    }
  }
}
node {
  name: "seq2seq/encoder/word_level_encoder/bidirectional_rnn/fw/fw/DropoutWrapperZeroState/LSTMCellZeroState/Const"
  op: "Const"
  device: "/device:GPU:0"
  attr {
    key: "_output_shapes"
    value {
      list {
        shape {
          dim {
            size: 1
          }
        }
      }
    }
  }
  attr {
    key: "dtype"
    value {
      type: DT_INT32
    }
  }
  attr {
    key: "value"
    value {
      tensor {
        dtype: DT_INT32
        tensor_shape {
          dim {
            size: 1
          }
        }
        int_val: 2
      }
    }
  }
}
node {
  name: "seq2seq/encoder/word_level_encoder/bidirectional_rnn/fw/fw/DropoutWrapperZeroState/LSTMCellZeroState/Const_1"
  op: "Const"
  device: "/device:GPU:0"
  attr {
    key: "_output_shapes"
    value {
      list {
        shape {
          dim {
            size: 1
          }
        }
      }
    }
  }
  attr {
    key: "dtype"
    value {
      type: DT_INT32
    }
  }
  attr {
    key: "value"
    value {
      tensor {
        dtype: DT_INT32
        tensor_shape {
          dim {
            size: 1
          }
        }
        int_val: 10
      }
    }
  }
}
node {
  name: "seq2seq/encoder/word_level_encoder/bidirectional_rnn/fw/fw/DropoutWrapperZeroState/LSTMCellZeroState/concat/axis"
  op: "Const"
  device: "/device:GPU:0"
  attr {
    key: "_output_shapes"
    value {
      list {
        shape {
        }
      }
    }
  }
  attr {
    key: "dtype"
    value {
      type: DT_INT32
    }
  }
  attr {
    key: "value"
    value {
      tensor {
        dtype: DT_INT32
        tensor_shape {
        }
        int_val: 0
      }
    }
  }
}
node {
  name: "seq2seq/encoder/word_level_encoder/bidirectional_rnn/fw/fw/DropoutWrapperZeroState/LSTMCellZeroState/concat"
  op: "ConcatV2"
  input: "seq2seq/encoder/word_level_encoder/bidirectional_rnn/fw/fw/DropoutWrapperZeroState/LSTMCellZeroState/Const"
  input: "seq2seq/encoder/word_level_encoder/bidirectional_rnn/fw/fw/DropoutWrapperZeroState/LSTMCellZeroState/Const_1"
  input: "seq2seq/encoder/word_level_encoder/bidirectional_rnn/fw/fw/DropoutWrapperZeroState/LSTMCellZeroState/concat/axis"
  device: "/device:GPU:0"
  attr {
    key: "N"
    value {
      i: 2
    }
  }
  attr {
    key: "T"
    value {
      type: DT_INT32
    }
  }
  attr {
    key: "Tidx"
    value {
      type: DT_INT32
    }
  }
  attr {
    key: "_output_shapes"
    value {
      list {
        shape {
          dim {
            size: 2
          }
        }
      }
    }
  }
}
node {
  name: "seq2seq/encoder/word_level_encoder/bidirectional_rnn/fw/fw/DropoutWrapperZeroState/LSTMCellZeroState/zeros/Const"
  op: "Const"
  device: "/device:GPU:0"
  attr {
    key: "_output_shapes"
    value {
      list {
        shape {
        }
      }
    }
  }
  attr {
    key: "dtype"
    value {
      type: DT_FLOAT
    }
  }
  attr {
    key: "value"
    value {
      tensor {
        dtype: DT_FLOAT
        tensor_shape {
        }
        float_val: 0.0
      }
    }
  }
}
node {
  name: "seq2seq/encoder/word_level_encoder/bidirectional_rnn/fw/fw/DropoutWrapperZeroState/LSTMCellZeroState/zeros"
  op: "Fill"
  input: "seq2seq/encoder/word_level_encoder/bidirectional_rnn/fw/fw/DropoutWrapperZeroState/LSTMCellZeroState/concat"
  input: "seq2seq/encoder/word_level_encoder/bidirectional_rnn/fw/fw/DropoutWrapperZeroState/LSTMCellZeroState/zeros/Const"
  device: "/device:GPU:0"
  attr {
    key: "T"
    value {
      type: DT_FLOAT
    }
  }
  attr {
    key: "_output_shapes"
    value {
      list {
        shape {
          dim {
            size: 2
          }
          dim {
            size: 10
          }
        }
      }
    }
  }
  attr {
    key: "index_type"
    value {
      type: DT_INT32
    }
  }
}
node {
  name: "seq2seq/encoder/word_level_encoder/bidirectional_rnn/fw/fw/DropoutWrapperZeroState/LSTMCellZeroState/Const_2"
  op: "Const"
  device: "/device:GPU:0"
  attr {
    key: "_output_shapes"
    value {
      list {
        shape {
          dim {
            size: 1
          }
        }
      }
    }
  }
  attr {
    key: "dtype"
    value {
      type: DT_INT32
    }
  }
  attr {
    key: "value"
    value {
      tensor {
        dtype: DT_INT32
        tensor_shape {
          dim {
            size: 1
          }
        }
        int_val: 2
      }
    }
  }
}
node {
  name: "seq2seq/encoder/word_level_encoder/bidirectional_rnn/fw/fw/DropoutWrapperZeroState/LSTMCellZeroState/Const_3"
  op: "Const"
  device: "/device:GPU:0"
  attr {
    key: "_output_shapes"
    value {
      list {
        shape {
          dim {
            size: 1
          }
        }
      }
    }
  }
  attr {
    key: "dtype"
    value {
      type: DT_INT32
    }
  }
  attr {
    key: "value"
    value {
      tensor {
        dtype: DT_INT32
        tensor_shape {
          dim {
            size: 1
          }
        }
        int_val: 10
      }
    }
  }
}
node {
  name: "seq2seq/encoder/word_level_encoder/bidirectional_rnn/fw/fw/DropoutWrapperZeroState/LSTMCellZeroState/Const_4"
  op: "Const"
  device: "/device:GPU:0"
  attr {
    key: "_output_shapes"
    value {
      list {
        shape {
          dim {
            size: 1
          }
        }
      }
    }
  }
  attr {
    key: "dtype"
    value {
      type: DT_INT32
    }
  }
  attr {
    key: "value"
    value {
      tensor {
        dtype: DT_INT32
        tensor_shape {
          dim {
            size: 1
          }
        }
        int_val: 2
      }
    }
  }
}
node {
  name: "seq2seq/encoder/word_level_encoder/bidirectional_rnn/fw/fw/DropoutWrapperZeroState/LSTMCellZeroState/Const_5"
  op: "Const"
  device: "/device:GPU:0"
  attr {
    key: "_output_shapes"
    value {
      list {
        shape {
          dim {
            size: 1
          }
        }
      }
    }
  }
  attr {
    key: "dtype"
    value {
      type: DT_INT32
    }
  }
  attr {
    key: "value"
    value {
      tensor {
        dtype: DT_INT32
        tensor_shape {
          dim {
            size: 1
          }
        }
        int_val: 10
      }
    }
  }
}
node {
  name: "seq2seq/encoder/word_level_encoder/bidirectional_rnn/fw/fw/DropoutWrapperZeroState/LSTMCellZeroState/concat_1/axis"
  op: "Const"
  device: "/device:GPU:0"
  attr {
    key: "_output_shapes"
    value {
      list {
        shape {
        }
      }
    }
  }
  attr {
    key: "dtype"
    value {
      type: DT_INT32
    }
  }
  attr {
    key: "value"
    value {
      tensor {
        dtype: DT_INT32
        tensor_shape {
        }
        int_val: 0
      }
    }
  }
}
node {
  name: "seq2seq/encoder/word_level_encoder/bidirectional_rnn/fw/fw/DropoutWrapperZeroState/LSTMCellZeroState/concat_1"
  op: "ConcatV2"
  input: "seq2seq/encoder/word_level_encoder/bidirectional_rnn/fw/fw/DropoutWrapperZeroState/LSTMCellZeroState/Const_4"
  input: "seq2seq/encoder/word_level_encoder/bidirectional_rnn/fw/fw/DropoutWrapperZeroState/LSTMCellZeroState/Const_5"
  input: "seq2seq/encoder/word_level_encoder/bidirectional_rnn/fw/fw/DropoutWrapperZeroState/LSTMCellZeroState/concat_1/axis"
  device: "/device:GPU:0"
  attr {
    key: "N"
    value {
      i: 2
    }
  }
  attr {
    key: "T"
    value {
      type: DT_INT32
    }
  }
  attr {
    key: "Tidx"
    value {
      type: DT_INT32
    }
  }
  attr {
    key: "_output_shapes"
    value {
      list {
        shape {
          dim {
            size: 2
          }
        }
      }
    }
  }
}
node {
  name: "seq2seq/encoder/word_level_encoder/bidirectional_rnn/fw/fw/DropoutWrapperZeroState/LSTMCellZeroState/zeros_1/Const"
  op: "Const"
  device: "/device:GPU:0"
  attr {
    key: "_output_shapes"
    value {
      list {
        shape {
        }
      }
    }
  }
  attr {
    key: "dtype"
    value {
      type: DT_FLOAT
    }
  }
  attr {
    key: "value"
    value {
      tensor {
        dtype: DT_FLOAT
        tensor_shape {
        }
        float_val: 0.0
      }
    }
  }
}
node {
  name: "seq2seq/encoder/word_level_encoder/bidirectional_rnn/fw/fw/DropoutWrapperZeroState/LSTMCellZeroState/zeros_1"
  op: "Fill"
  input: "seq2seq/encoder/word_level_encoder/bidirectional_rnn/fw/fw/DropoutWrapperZeroState/LSTMCellZeroState/concat_1"
  input: "seq2seq/encoder/word_level_encoder/bidirectional_rnn/fw/fw/DropoutWrapperZeroState/LSTMCellZeroState/zeros_1/Const"
  device: "/device:GPU:0"
  attr {
    key: "T"
    value {
      type: DT_FLOAT
    }
  }
  attr {
    key: "_output_shapes"
    value {
      list {
        shape {
          dim {
            size: 2
          }
          dim {
            size: 10
          }
        }
      }
    }
  }
  attr {
    key: "index_type"
    value {
      type: DT_INT32
    }
  }
}
node {
  name: "seq2seq/encoder/word_level_encoder/bidirectional_rnn/fw/fw/DropoutWrapperZeroState/LSTMCellZeroState/Const_6"
  op: "Const"
  device: "/device:GPU:0"
  attr {
    key: "_output_shapes"
    value {
      list {
        shape {
          dim {
            size: 1
          }
        }
      }
    }
  }
  attr {
    key: "dtype"
    value {
      type: DT_INT32
    }
  }
  attr {
    key: "value"
    value {
      tensor {
        dtype: DT_INT32
        tensor_shape {
          dim {
            size: 1
          }
        }
        int_val: 2
      }
    }
  }
}
node {
  name: "seq2seq/encoder/word_level_encoder/bidirectional_rnn/fw/fw/DropoutWrapperZeroState/LSTMCellZeroState/Const_7"
  op: "Const"
  device: "/device:GPU:0"
  attr {
    key: "_output_shapes"
    value {
      list {
        shape {
          dim {
            size: 1
          }
        }
      }
    }
  }
  attr {
    key: "dtype"
    value {
      type: DT_INT32
    }
  }
  attr {
    key: "value"
    value {
      tensor {
        dtype: DT_INT32
        tensor_shape {
          dim {
            size: 1
          }
        }
        int_val: 10
      }
    }
  }
}
node {
  name: "seq2seq/encoder/word_level_encoder/bidirectional_rnn/fw/fw/Shape"
  op: "Const"
  device: "/device:GPU:0"
  attr {
    key: "_output_shapes"
    value {
      list {
        shape {
          dim {
            size: 1
          }
        }
      }
    }
  }
  attr {
    key: "dtype"
    value {
      type: DT_INT32
    }
  }
  attr {
    key: "value"
    value {
      tensor {
        dtype: DT_INT32
        tensor_shape {
          dim {
            size: 1
          }
        }
        int_val: 2
      }
    }
  }
}
node {
  name: "seq2seq/encoder/word_level_encoder/bidirectional_rnn/fw/fw/stack"
  op: "Const"
  device: "/device:GPU:0"
  attr {
    key: "_output_shapes"
    value {
      list {
        shape {
          dim {
            size: 1
          }
        }
      }
    }
  }
  attr {
    key: "dtype"
    value {
      type: DT_INT32
    }
  }
  attr {
    key: "value"
    value {
      tensor {
        dtype: DT_INT32
        tensor_shape {
          dim {
            size: 1
          }
        }
        int_val: 2
      }
    }
  }
}
node {
  name: "seq2seq/encoder/word_level_encoder/bidirectional_rnn/fw/fw/Equal"
  op: "Equal"
  input: "seq2seq/encoder/word_level_encoder/bidirectional_rnn/fw/fw/Shape"
  input: "seq2seq/encoder/word_level_encoder/bidirectional_rnn/fw/fw/stack"
  device: "/device:GPU:0"
  attr {
    key: "T"
    value {
      type: DT_INT32
    }
  }
  attr {
    key: "_output_shapes"
    value {
      list {
        shape {
          dim {
            size: 1
          }
        }
      }
    }
  }
  attr {
    key: "incompatible_shape_error"
    value {
      b: true
    }
  }
}
node {
  name: "seq2seq/encoder/word_level_encoder/bidirectional_rnn/fw/fw/Const"
  op: "Const"
  device: "/device:GPU:0"
  attr {
    key: "_output_shapes"
    value {
      list {
        shape {
          dim {
            size: 1
          }
        }
      }
    }
  }
  attr {
    key: "dtype"
    value {
      type: DT_INT32
    }
  }
  attr {
    key: "value"
    value {
      tensor {
        dtype: DT_INT32
        tensor_shape {
          dim {
            size: 1
          }
        }
        int_val: 0
      }
    }
  }
}
node {
  name: "seq2seq/encoder/word_level_encoder/bidirectional_rnn/fw/fw/All"
  op: "All"
  input: "seq2seq/encoder/word_level_encoder/bidirectional_rnn/fw/fw/Equal"
  input: "seq2seq/encoder/word_level_encoder/bidirectional_rnn/fw/fw/Const"
  device: "/device:GPU:0"
  attr {
    key: "Tidx"
    value {
      type: DT_INT32
    }
  }
  attr {
    key: "_output_shapes"
    value {
      list {
        shape {
        }
      }
    }
  }
  attr {
    key: "keep_dims"
    value {
      b: false
    }
  }
}
node {
  name: "seq2seq/encoder/word_level_encoder/bidirectional_rnn/fw/fw/Assert/Const"
  op: "Const"
  device: "/device:GPU:0"
  attr {
    key: "_output_shapes"
    value {
      list {
        shape {
        }
      }
    }
  }
  attr {
    key: "dtype"
    value {
      type: DT_STRING
    }
  }
  attr {
    key: "value"
    value {
      tensor {
        dtype: DT_STRING
        tensor_shape {
        }
        string_val: "…"
      }
    }
  }
}
node {
  name: "seq2seq/encoder/word_level_encoder/bidirectional_rnn/fw/fw/Assert/Const_1"
  op: "Const"
  device: "/device:GPU:0"
  attr {
    key: "_output_shapes"
    value {
      list {
        shape {
        }
      }
    }
  }
  attr {
    key: "dtype"
    value {
      type: DT_STRING
    }
  }
  attr {
    key: "value"
    value {
      tensor {
        dtype: DT_STRING
        tensor_shape {
        }
        string_val: " but saw shape: "
      }
    }
  }
}
node {
  name: "seq2seq/encoder/word_level_encoder/bidirectional_rnn/fw/fw/Assert/Assert/data_0"
  op: "Const"
  device: "/device:GPU:0"
  attr {
    key: "_output_shapes"
    value {
      list {
        shape {
        }
      }
    }
  }
  attr {
    key: "dtype"
    value {
      type: DT_STRING
    }
  }
  attr {
    key: "value"
    value {
      tensor {
        dtype: DT_STRING
        tensor_shape {
        }
        string_val: "…"
      }
    }
  }
}
node {
  name: "seq2seq/encoder/word_level_encoder/bidirectional_rnn/fw/fw/Assert/Assert/data_2"
  op: "Const"
  device: "/device:GPU:0"
  attr {
    key: "_output_shapes"
    value {
      list {
        shape {
        }
      }
    }
  }
  attr {
    key: "dtype"
    value {
      type: DT_STRING
    }
  }
  attr {
    key: "value"
    value {
      tensor {
        dtype: DT_STRING
        tensor_shape {
        }
        string_val: " but saw shape: "
      }
    }
  }
}
node {
  name: "seq2seq/encoder/word_level_encoder/bidirectional_rnn/fw/fw/Assert/Assert"
  op: "Assert"
  input: "seq2seq/encoder/word_level_encoder/bidirectional_rnn/fw/fw/All"
  input: "seq2seq/encoder/word_level_encoder/bidirectional_rnn/fw/fw/Assert/Assert/data_0"
  input: "seq2seq/encoder/word_level_encoder/bidirectional_rnn/fw/fw/stack"
  input: "seq2seq/encoder/word_level_encoder/bidirectional_rnn/fw/fw/Assert/Assert/data_2"
  input: "seq2seq/encoder/word_level_encoder/bidirectional_rnn/fw/fw/Shape"
  device: "/device:GPU:0"
  attr {
    key: "T"
    value {
      list {
        type: DT_STRING
        type: DT_INT32
        type: DT_STRING
        type: DT_INT32
      }
    }
  }
  attr {
    key: "summarize"
    value {
      i: 3
    }
  }
}
node {
  name: "seq2seq/encoder/word_level_encoder/bidirectional_rnn/fw/fw/CheckSeqLen"
  op: "Identity"
  input: "seq2seq/encoder/word_level_encoder/bidirectional_rnn/fw/fw/sequence_length"
  input: "^seq2seq/encoder/word_level_encoder/bidirectional_rnn/fw/fw/Assert/Assert"
  device: "/device:GPU:0"
  attr {
    key: "T"
    value {
      type: DT_INT32
    }
  }
  attr {
    key: "_output_shapes"
    value {
      list {
        shape {
          dim {
            size: 2
          }
        }
      }
    }
  }
}
node {
  name: "seq2seq/encoder/word_level_encoder/bidirectional_rnn/fw/fw/Shape_1"
  op: "Shape"
  input: "seq2seq/encoder/word_level_encoder/bidirectional_rnn/fw/fw/transpose"
  device: "/device:GPU:0"
  attr {
    key: "T"
    value {
      type: DT_FLOAT
    }
  }
  attr {
    key: "_output_shapes"
    value {
      list {
        shape {
          dim {
            size: 3
          }
        }
      }
    }
  }
  attr {
    key: "out_type"
    value {
      type: DT_INT32
    }
  }
}
node {
  name: "seq2seq/encoder/word_level_encoder/bidirectional_rnn/fw/fw/strided_slice/stack"
  op: "Const"
  device: "/device:GPU:0"
  attr {
    key: "_output_shapes"
    value {
      list {
        shape {
          dim {
            size: 1
          }
        }
      }
    }
  }
  attr {
    key: "dtype"
    value {
      type: DT_INT32
    }
  }
  attr {
    key: "value"
    value {
      tensor {
        dtype: DT_INT32
        tensor_shape {
          dim {
            size: 1
          }
        }
        int_val: 0
      }
    }
  }
}
node {
  name: "seq2seq/encoder/word_level_encoder/bidirectional_rnn/fw/fw/strided_slice/stack_1"
  op: "Const"
  device: "/device:GPU:0"
  attr {
    key: "_output_shapes"
    value {
      list {
        shape {
          dim {
            size: 1
          }
        }
      }
    }
  }
  attr {
    key: "dtype"
    value {
      type: DT_INT32
    }
  }
  attr {
    key: "value"
    value {
      tensor {
        dtype: DT_INT32
        tensor_shape {
          dim {
            size: 1
          }
        }
        int_val: 1
      }
    }
  }
}
node {
  name: "seq2seq/encoder/word_level_encoder/bidirectional_rnn/fw/fw/strided_slice/stack_2"
  op: "Const"
  device: "/device:GPU:0"
  attr {
    key: "_output_shapes"
    value {
      list {
        shape {
          dim {
            size: 1
          }
        }
      }
    }
  }
  attr {
    key: "dtype"
    value {
      type: DT_INT32
    }
  }
  attr {
    key: "value"
    value {
      tensor {
        dtype: DT_INT32
        tensor_shape {
          dim {
            size: 1
          }
        }
        int_val: 1
      }
    }
  }
}
node {
  name: "seq2seq/encoder/word_level_encoder/bidirectional_rnn/fw/fw/strided_slice"
  op: "StridedSlice"
  input: "seq2seq/encoder/word_level_encoder/bidirectional_rnn/fw/fw/Shape_1"
  input: "seq2seq/encoder/word_level_encoder/bidirectional_rnn/fw/fw/strided_slice/stack"
  input: "seq2seq/encoder/word_level_encoder/bidirectional_rnn/fw/fw/strided_slice/stack_1"
  input: "seq2seq/encoder/word_level_encoder/bidirectional_rnn/fw/fw/strided_slice/stack_2"
  device: "/device:GPU:0"
  attr {
    key: "Index"
    value {
      type: DT_INT32
    }
  }
  attr {
    key: "T"
    value {
      type: DT_INT32
    }
  }
  attr {
    key: "_output_shapes"
    value {
      list {
        shape {
        }
      }
    }
  }
  attr {
    key: "begin_mask"
    value {
      i: 0
    }
  }
  attr {
    key: "ellipsis_mask"
    value {
      i: 0
    }
  }
  attr {
    key: "end_mask"
    value {
      i: 0
    }
  }
  attr {
    key: "new_axis_mask"
    value {
      i: 0
    }
  }
  attr {
    key: "shrink_axis_mask"
    value {
      i: 1
    }
  }
}
node {
  name: "seq2seq/encoder/word_level_encoder/bidirectional_rnn/fw/fw/Const_1"
  op: "Const"
  device: "/device:GPU:0"
  attr {
    key: "_output_shapes"
    value {
      list {
        shape {
          dim {
            size: 1
          }
        }
      }
    }
  }
  attr {
    key: "dtype"
    value {
      type: DT_INT32
    }
  }
  attr {
    key: "value"
    value {
      tensor {
        dtype: DT_INT32
        tensor_shape {
          dim {
            size: 1
          }
        }
        int_val: 2
      }
    }
  }
}
node {
  name: "seq2seq/encoder/word_level_encoder/bidirectional_rnn/fw/fw/Const_2"
  op: "Const"
  device: "/device:GPU:0"
  attr {
    key: "_output_shapes"
    value {
      list {
        shape {
          dim {
            size: 1
          }
        }
      }
    }
  }
  attr {
    key: "dtype"
    value {
      type: DT_INT32
    }
  }
  attr {
    key: "value"
    value {
      tensor {
        dtype: DT_INT32
        tensor_shape {
          dim {
            size: 1
          }
        }
        int_val: 10
      }
    }
  }
}
node {
  name: "seq2seq/encoder/word_level_encoder/bidirectional_rnn/fw/fw/concat_1/axis"
  op: "Const"
  device: "/device:GPU:0"
  attr {
    key: "_output_shapes"
    value {
      list {
        shape {
        }
      }
    }
  }
  attr {
    key: "dtype"
    value {
      type: DT_INT32
    }
  }
  attr {
    key: "value"
    value {
      tensor {
        dtype: DT_INT32
        tensor_shape {
        }
        int_val: 0
      }
    }
  }
}
node {
  name: "seq2seq/encoder/word_level_encoder/bidirectional_rnn/fw/fw/concat_1"
  op: "ConcatV2"
  input: "seq2seq/encoder/word_level_encoder/bidirectional_rnn/fw/fw/Const_1"
  input: "seq2seq/encoder/word_level_encoder/bidirectional_rnn/fw/fw/Const_2"
  input: "seq2seq/encoder/word_level_encoder/bidirectional_rnn/fw/fw/concat_1/axis"
  device: "/device:GPU:0"
  attr {
    key: "N"
    value {
      i: 2
    }
  }
  attr {
    key: "T"
    value {
      type: DT_INT32
    }
  }
  attr {
    key: "Tidx"
    value {
      type: DT_INT32
    }
  }
  attr {
    key: "_output_shapes"
    value {
      list {
        shape {
          dim {
            size: 2
          }
        }
      }
    }
  }
}
node {
  name: "seq2seq/encoder/word_level_encoder/bidirectional_rnn/fw/fw/zeros/Const"
  op: "Const"
  device: "/device:GPU:0"
  attr {
    key: "_output_shapes"
    value {
      list {
        shape {
        }
      }
    }
  }
  attr {
    key: "dtype"
    value {
      type: DT_FLOAT
    }
  }
  attr {
    key: "value"
    value {
      tensor {
        dtype: DT_FLOAT
        tensor_shape {
        }
        float_val: 0.0
      }
    }
  }
}
node {
  name: "seq2seq/encoder/word_level_encoder/bidirectional_rnn/fw/fw/zeros"
  op: "Fill"
  input: "seq2seq/encoder/word_level_encoder/bidirectional_rnn/fw/fw/concat_1"
  input: "seq2seq/encoder/word_level_encoder/bidirectional_rnn/fw/fw/zeros/Const"
  device: "/device:GPU:0"
  attr {
    key: "T"
    value {
      type: DT_FLOAT
    }
  }
  attr {
    key: "_output_shapes"
    value {
      list {
        shape {
          dim {
            size: 2
          }
          dim {
            size: 10
          }
        }
      }
    }
  }
  attr {
    key: "index_type"
    value {
      type: DT_INT32
    }
  }
}
node {
  name: "seq2seq/encoder/word_level_encoder/bidirectional_rnn/fw/fw/Const_3"
  op: "Const"
  device: "/device:GPU:0"
  attr {
    key: "_output_shapes"
    value {
      list {
        shape {
          dim {
            size: 1
          }
        }
      }
    }
  }
  attr {
    key: "dtype"
    value {
      type: DT_INT32
    }
  }
  attr {
    key: "value"
    value {
      tensor {
        dtype: DT_INT32
        tensor_shape {
          dim {
            size: 1
          }
        }
        int_val: 0
      }
    }
  }
}
node {
  name: "seq2seq/encoder/word_level_encoder/bidirectional_rnn/fw/fw/Min"
  op: "Min"
  input: "seq2seq/encoder/word_level_encoder/bidirectional_rnn/fw/fw/CheckSeqLen"
  input: "seq2seq/encoder/word_level_encoder/bidirectional_rnn/fw/fw/Const_3"
  device: "/device:GPU:0"
  attr {
    key: "T"
    value {
      type: DT_INT32
    }
  }
  attr {
    key: "Tidx"
    value {
      type: DT_INT32
    }
  }
  attr {
    key: "_output_shapes"
    value {
      list {
        shape {
        }
      }
    }
  }
  attr {
    key: "keep_dims"
    value {
      b: false
    }
  }
}
node {
  name: "seq2seq/encoder/word_level_encoder/bidirectional_rnn/fw/fw/Const_4"
  op: "Const"
  device: "/device:GPU:0"
  attr {
    key: "_output_shapes"
    value {
      list {
        shape {
          dim {
            size: 1
          }
        }
      }
    }
  }
  attr {
    key: "dtype"
    value {
      type: DT_INT32
    }
  }
  attr {
    key: "value"
    value {
      tensor {
        dtype: DT_INT32
        tensor_shape {
          dim {
            size: 1
          }
        }
        int_val: 0
      }
    }
  }
}
node {
  name: "seq2seq/encoder/word_level_encoder/bidirectional_rnn/fw/fw/Max"
  op: "Max"
  input: "seq2seq/encoder/word_level_encoder/bidirectional_rnn/fw/fw/CheckSeqLen"
  input: "seq2seq/encoder/word_level_encoder/bidirectional_rnn/fw/fw/Const_4"
  device: "/device:GPU:0"
  attr {
    key: "T"
    value {
      type: DT_INT32
    }
  }
  attr {
    key: "Tidx"
    value {
      type: DT_INT32
    }
  }
  attr {
    key: "_output_shapes"
    value {
      list {
        shape {
        }
      }
    }
  }
  attr {
    key: "keep_dims"
    value {
      b: false
    }
  }
}
node {
  name: "seq2seq/encoder/word_level_encoder/bidirectional_rnn/fw/fw/time"
  op: "Const"
  device: "/device:GPU:0"
  attr {
    key: "_output_shapes"
    value {
      list {
        shape {
        }
      }
    }
  }
  attr {
    key: "dtype"
    value {
      type: DT_INT32
    }
  }
  attr {
    key: "value"
    value {
      tensor {
        dtype: DT_INT32
        tensor_shape {
        }
        int_val: 0
      }
    }
  }
}
node {
  name: "seq2seq/encoder/word_level_encoder/bidirectional_rnn/fw/fw/TensorArray"
  op: "TensorArrayV3"
  input: "seq2seq/encoder/word_level_encoder/bidirectional_rnn/fw/fw/strided_slice"
  attr {
    key: "_output_shapes"
    value {
      list {
        shape {
          dim {
            size: 2
          }
        }
        shape {
        }
      }
    }
  }
  attr {
    key: "clear_after_read"
    value {
      b: true
    }
  }
  attr {
    key: "dtype"
    value {
      type: DT_FLOAT
    }
  }
  attr {
    key: "dynamic_size"
    value {
      b: false
    }
  }
  attr {
    key: "element_shape"
    value {
      shape {
        dim {
          size: 2
        }
        dim {
          size: 10
        }
      }
    }
  }
  attr {
    key: "identical_element_shapes"
    value {
      b: true
    }
  }
  attr {
    key: "tensor_array_name"
    value {
      s: "seq2seq/encoder/word_level_encoder/bidirectional_rnn/fw/fw/dynamic_rnn/output_0"
    }
  }
}
node {
  name: "seq2seq/encoder/word_level_encoder/bidirectional_rnn/fw/fw/TensorArray_1"
  op: "TensorArrayV3"
  input: "seq2seq/encoder/word_level_encoder/bidirectional_rnn/fw/fw/strided_slice"
  attr {
    key: "_output_shapes"
    value {
      list {
        shape {
          dim {
            size: 2
          }
        }
        shape {
        }
      }
    }
  }
  attr {
    key: "clear_after_read"
    value {
      b: true
    }
  }
  attr {
    key: "dtype"
    value {
      type: DT_FLOAT
    }
  }
  attr {
    key: "dynamic_size"
    value {
      b: false
    }
  }
  attr {
    key: "element_shape"
    value {
      shape {
        dim {
          size: 2
        }
        dim {
          size: 10
        }
      }
    }
  }
  attr {
    key: "identical_element_shapes"
    value {
      b: true
    }
  }
  attr {
    key: "tensor_array_name"
    value {
      s: "seq2seq/encoder/word_level_encoder/bidirectional_rnn/fw/fw/dynamic_rnn/input_0"
    }
  }
}
node {
  name: "seq2seq/encoder/word_level_encoder/bidirectional_rnn/fw/fw/TensorArrayUnstack/Shape"
  op: "Shape"
  input: "seq2seq/encoder/word_level_encoder/bidirectional_rnn/fw/fw/transpose"
  device: "/device:GPU:0"
  attr {
    key: "T"
    value {
      type: DT_FLOAT
    }
  }
  attr {
    key: "_output_shapes"
    value {
      list {
        shape {
          dim {
            size: 3
          }
        }
      }
    }
  }
  attr {
    key: "out_type"
    value {
      type: DT_INT32
    }
  }
}
node {
  name: "seq2seq/encoder/word_level_encoder/bidirectional_rnn/fw/fw/TensorArrayUnstack/strided_slice/stack"
  op: "Const"
  device: "/device:GPU:0"
  attr {
    key: "_output_shapes"
    value {
      list {
        shape {
          dim {
            size: 1
          }
        }
      }
    }
  }
  attr {
    key: "dtype"
    value {
      type: DT_INT32
    }
  }
  attr {
    key: "value"
    value {
      tensor {
        dtype: DT_INT32
        tensor_shape {
          dim {
            size: 1
          }
        }
        int_val: 0
      }
    }
  }
}
node {
  name: "seq2seq/encoder/word_level_encoder/bidirectional_rnn/fw/fw/TensorArrayUnstack/strided_slice/stack_1"
  op: "Const"
  device: "/device:GPU:0"
  attr {
    key: "_output_shapes"
    value {
      list {
        shape {
          dim {
            size: 1
          }
        }
      }
    }
  }
  attr {
    key: "dtype"
    value {
      type: DT_INT32
    }
  }
  attr {
    key: "value"
    value {
      tensor {
        dtype: DT_INT32
        tensor_shape {
          dim {
            size: 1
          }
        }
        int_val: 1
      }
    }
  }
}
node {
  name: "seq2seq/encoder/word_level_encoder/bidirectional_rnn/fw/fw/TensorArrayUnstack/strided_slice/stack_2"
  op: "Const"
  device: "/device:GPU:0"
  attr {
    key: "_output_shapes"
    value {
      list {
        shape {
          dim {
            size: 1
          }
        }
      }
    }
  }
  attr {
    key: "dtype"
    value {
      type: DT_INT32
    }
  }
  attr {
    key: "value"
    value {
      tensor {
        dtype: DT_INT32
        tensor_shape {
          dim {
            size: 1
          }
        }
        int_val: 1
      }
    }
  }
}
node {
  name: "seq2seq/encoder/word_level_encoder/bidirectional_rnn/fw/fw/TensorArrayUnstack/strided_slice"
  op: "StridedSlice"
  input: "seq2seq/encoder/word_level_encoder/bidirectional_rnn/fw/fw/TensorArrayUnstack/Shape"
  input: "seq2seq/encoder/word_level_encoder/bidirectional_rnn/fw/fw/TensorArrayUnstack/strided_slice/stack"
  input: "seq2seq/encoder/word_level_encoder/bidirectional_rnn/fw/fw/TensorArrayUnstack/strided_slice/stack_1"
  input: "seq2seq/encoder/word_level_encoder/bidirectional_rnn/fw/fw/TensorArrayUnstack/strided_slice/stack_2"
  device: "/device:GPU:0"
  attr {
    key: "Index"
    value {
      type: DT_INT32
    }
  }
  attr {
    key: "T"
    value {
      type: DT_INT32
    }
  }
  attr {
    key: "_output_shapes"
    value {
      list {
        shape {
        }
      }
    }
  }
  attr {
    key: "begin_mask"
    value {
      i: 0
    }
  }
  attr {
    key: "ellipsis_mask"
    value {
      i: 0
    }
  }
  attr {
    key: "end_mask"
    value {
      i: 0
    }
  }
  attr {
    key: "new_axis_mask"
    value {
      i: 0
    }
  }
  attr {
    key: "shrink_axis_mask"
    value {
      i: 1
    }
  }
}
node {
  name: "seq2seq/encoder/word_level_encoder/bidirectional_rnn/fw/fw/TensorArrayUnstack/range/start"
  op: "Const"
  device: "/device:GPU:0"
  attr {
    key: "_output_shapes"
    value {
      list {
        shape {
        }
      }
    }
  }
  attr {
    key: "dtype"
    value {
      type: DT_INT32
    }
  }
  attr {
    key: "value"
    value {
      tensor {
        dtype: DT_INT32
        tensor_shape {
        }
        int_val: 0
      }
    }
  }
}
node {
  name: "seq2seq/encoder/word_level_encoder/bidirectional_rnn/fw/fw/TensorArrayUnstack/range/delta"
  op: "Const"
  device: "/device:GPU:0"
  attr {
    key: "_output_shapes"
    value {
      list {
        shape {
        }
      }
    }
  }
  attr {
    key: "dtype"
    value {
      type: DT_INT32
    }
  }
  attr {
    key: "value"
    value {
      tensor {
        dtype: DT_INT32
        tensor_shape {
        }
        int_val: 1
      }
    }
  }
}
node {
  name: "seq2seq/encoder/word_level_encoder/bidirectional_rnn/fw/fw/TensorArrayUnstack/range"
  op: "Range"
  input: "seq2seq/encoder/word_level_encoder/bidirectional_rnn/fw/fw/TensorArrayUnstack/range/start"
  input: "seq2seq/encoder/word_level_encoder/bidirectional_rnn/fw/fw/TensorArrayUnstack/strided_slice"
  input: "seq2seq/encoder/word_level_encoder/bidirectional_rnn/fw/fw/TensorArrayUnstack/range/delta"
  device: "/device:GPU:0"
  attr {
    key: "Tidx"
    value {
      type: DT_INT32
    }
  }
  attr {
    key: "_output_shapes"
    value {
      list {
        shape {
          dim {
            size: -1
          }
        }
      }
    }
  }
}
node {
  name: "seq2seq/encoder/word_level_encoder/bidirectional_rnn/fw/fw/TensorArrayUnstack/TensorArrayScatter/TensorArrayScatterV3"
  op: "TensorArrayScatterV3"
  input: "seq2seq/encoder/word_level_encoder/bidirectional_rnn/fw/fw/TensorArray_1"
  input: "seq2seq/encoder/word_level_encoder/bidirectional_rnn/fw/fw/TensorArrayUnstack/range"
  input: "seq2seq/encoder/word_level_encoder/bidirectional_rnn/fw/fw/transpose"
  input: "seq2seq/encoder/word_level_encoder/bidirectional_rnn/fw/fw/TensorArray_1:1"
  device: "/device:GPU:0"
  attr {
    key: "T"
    value {
      type: DT_FLOAT
    }
  }
  attr {
    key: "_class"
    value {
      list {
        s: "loc:@seq2seq/encoder/word_level_encoder/bidirectional_rnn/fw/fw/transpose"
      }
    }
  }
  attr {
    key: "_output_shapes"
    value {
      list {
        shape {
        }
      }
    }
  }
}
node {
  name: "seq2seq/encoder/word_level_encoder/bidirectional_rnn/fw/fw/Maximum/x"
  op: "Const"
  device: "/device:GPU:0"
  attr {
    key: "_output_shapes"
    value {
      list {
        shape {
        }
      }
    }
  }
  attr {
    key: "dtype"
    value {
      type: DT_INT32
    }
  }
  attr {
    key: "value"
    value {
      tensor {
        dtype: DT_INT32
        tensor_shape {
        }
        int_val: 1
      }
    }
  }
}
node {
  name: "seq2seq/encoder/word_level_encoder/bidirectional_rnn/fw/fw/Maximum"
  op: "Maximum"
  input: "seq2seq/encoder/word_level_encoder/bidirectional_rnn/fw/fw/Maximum/x"
  input: "seq2seq/encoder/word_level_encoder/bidirectional_rnn/fw/fw/Max"
  device: "/device:GPU:0"
  attr {
    key: "T"
    value {
      type: DT_INT32
    }
  }
  attr {
    key: "_output_shapes"
    value {
      list {
        shape {
        }
      }
    }
  }
}
node {
  name: "seq2seq/encoder/word_level_encoder/bidirectional_rnn/fw/fw/Minimum"
  op: "Minimum"
  input: "seq2seq/encoder/word_level_encoder/bidirectional_rnn/fw/fw/strided_slice"
  input: "seq2seq/encoder/word_level_encoder/bidirectional_rnn/fw/fw/Maximum"
  device: "/device:GPU:0"
  attr {
    key: "T"
    value {
      type: DT_INT32
    }
  }
  attr {
    key: "_output_shapes"
    value {
      list {
        shape {
        }
      }
    }
  }
}
node {
  name: "seq2seq/encoder/word_level_encoder/bidirectional_rnn/fw/fw/while/iteration_counter"
  op: "Const"
  device: "/device:GPU:0"
  attr {
    key: "_output_shapes"
    value {
      list {
        shape {
        }
      }
    }
  }
  attr {
    key: "dtype"
    value {
      type: DT_INT32
    }
  }
  attr {
    key: "value"
    value {
      tensor {
        dtype: DT_INT32
        tensor_shape {
        }
        int_val: 0
      }
    }
  }
}
node {
  name: "seq2seq/encoder/word_level_encoder/bidirectional_rnn/fw/fw/while/Enter"
  op: "Enter"
  input: "seq2seq/encoder/word_level_encoder/bidirectional_rnn/fw/fw/while/iteration_counter"
  device: "/device:GPU:0"
  attr {
    key: "T"
    value {
      type: DT_INT32
    }
  }
  attr {
    key: "_output_shapes"
    value {
      list {
        shape {
        }
      }
    }
  }
  attr {
    key: "frame_name"
    value {
      s: "seq2seq/encoder/word_level_encoder/bidirectional_rnn/fw/fw/while/while_context"
    }
  }
  attr {
    key: "is_constant"
    value {
      b: false
    }
  }
  attr {
    key: "parallel_iterations"
    value {
      i: 32
    }
  }
}
node {
  name: "seq2seq/encoder/word_level_encoder/bidirectional_rnn/fw/fw/while/Enter_1"
  op: "Enter"
  input: "seq2seq/encoder/word_level_encoder/bidirectional_rnn/fw/fw/time"
  device: "/device:GPU:0"
  attr {
    key: "T"
    value {
      type: DT_INT32
    }
  }
  attr {
    key: "_output_shapes"
    value {
      list {
        shape {
        }
      }
    }
  }
  attr {
    key: "frame_name"
    value {
      s: "seq2seq/encoder/word_level_encoder/bidirectional_rnn/fw/fw/while/while_context"
    }
  }
  attr {
    key: "is_constant"
    value {
      b: false
    }
  }
  attr {
    key: "parallel_iterations"
    value {
      i: 32
    }
  }
}
node {
  name: "seq2seq/encoder/word_level_encoder/bidirectional_rnn/fw/fw/while/Enter_2"
  op: "Enter"
  input: "seq2seq/encoder/word_level_encoder/bidirectional_rnn/fw/fw/TensorArray:1"
  device: "/device:GPU:0"
  attr {
    key: "T"
    value {
      type: DT_FLOAT
    }
  }
  attr {
    key: "_output_shapes"
    value {
      list {
        shape {
        }
      }
    }
  }
  attr {
    key: "frame_name"
    value {
      s: "seq2seq/encoder/word_level_encoder/bidirectional_rnn/fw/fw/while/while_context"
    }
  }
  attr {
    key: "is_constant"
    value {
      b: false
    }
  }
  attr {
    key: "parallel_iterations"
    value {
      i: 32
    }
  }
}
node {
  name: "seq2seq/encoder/word_level_encoder/bidirectional_rnn/fw/fw/while/Enter_3"
  op: "Enter"
  input: "seq2seq/encoder/word_level_encoder/bidirectional_rnn/fw/fw/DropoutWrapperZeroState/LSTMCellZeroState/zeros"
  device: "/device:GPU:0"
  attr {
    key: "T"
    value {
      type: DT_FLOAT
    }
  }
  attr {
    key: "_output_shapes"
    value {
      list {
        shape {
          dim {
            size: 2
          }
          dim {
            size: 10
          }
        }
      }
    }
  }
  attr {
    key: "frame_name"
    value {
      s: "seq2seq/encoder/word_level_encoder/bidirectional_rnn/fw/fw/while/while_context"
    }
  }
  attr {
    key: "is_constant"
    value {
      b: false
    }
  }
  attr {
    key: "parallel_iterations"
    value {
      i: 32
    }
  }
}
node {
  name: "seq2seq/encoder/word_level_encoder/bidirectional_rnn/fw/fw/while/Enter_4"
  op: "Enter"
  input: "seq2seq/encoder/word_level_encoder/bidirectional_rnn/fw/fw/DropoutWrapperZeroState/LSTMCellZeroState/zeros_1"
  device: "/device:GPU:0"
  attr {
    key: "T"
    value {
      type: DT_FLOAT
    }
  }
  attr {
    key: "_output_shapes"
    value {
      list {
        shape {
          dim {
            size: 2
          }
          dim {
            size: 10
          }
        }
      }
    }
  }
  attr {
    key: "frame_name"
    value {
      s: "seq2seq/encoder/word_level_encoder/bidirectional_rnn/fw/fw/while/while_context"
    }
  }
  attr {
    key: "is_constant"
    value {
      b: false
    }
  }
  attr {
    key: "parallel_iterations"
    value {
      i: 32
    }
  }
}
node {
  name: "seq2seq/encoder/word_level_encoder/bidirectional_rnn/fw/fw/while/Merge"
  op: "Merge"
  input: "seq2seq/encoder/word_level_encoder/bidirectional_rnn/fw/fw/while/Enter"
  input: "seq2seq/encoder/word_level_encoder/bidirectional_rnn/fw/fw/while/NextIteration"
  device: "/device:GPU:0"
  attr {
    key: "N"
    value {
      i: 2
    }
  }
  attr {
    key: "T"
    value {
      type: DT_INT32
    }
  }
  attr {
    key: "_output_shapes"
    value {
      list {
        shape {
        }
        shape {
        }
      }
    }
  }
}
node {
  name: "seq2seq/encoder/word_level_encoder/bidirectional_rnn/fw/fw/while/Merge_1"
  op: "Merge"
  input: "seq2seq/encoder/word_level_encoder/bidirectional_rnn/fw/fw/while/Enter_1"
  input: "seq2seq/encoder/word_level_encoder/bidirectional_rnn/fw/fw/while/NextIteration_1"
  device: "/device:GPU:0"
  attr {
    key: "N"
    value {
      i: 2
    }
  }
  attr {
    key: "T"
    value {
      type: DT_INT32
    }
  }
  attr {
    key: "_output_shapes"
    value {
      list {
        shape {
        }
        shape {
        }
      }
    }
  }
}
node {
  name: "seq2seq/encoder/word_level_encoder/bidirectional_rnn/fw/fw/while/Merge_2"
  op: "Merge"
  input: "seq2seq/encoder/word_level_encoder/bidirectional_rnn/fw/fw/while/Enter_2"
  input: "seq2seq/encoder/word_level_encoder/bidirectional_rnn/fw/fw/while/NextIteration_2"
  device: "/device:GPU:0"
  attr {
    key: "N"
    value {
      i: 2
    }
  }
  attr {
    key: "T"
    value {
      type: DT_FLOAT
    }
  }
  attr {
    key: "_output_shapes"
    value {
      list {
        shape {
        }
        shape {
        }
      }
    }
  }
}
node {
  name: "seq2seq/encoder/word_level_encoder/bidirectional_rnn/fw/fw/while/Merge_3"
  op: "Merge"
  input: "seq2seq/encoder/word_level_encoder/bidirectional_rnn/fw/fw/while/Enter_3"
  input: "seq2seq/encoder/word_level_encoder/bidirectional_rnn/fw/fw/while/NextIteration_3"
  device: "/device:GPU:0"
  attr {
    key: "N"
    value {
      i: 2
    }
  }
  attr {
    key: "T"
    value {
      type: DT_FLOAT
    }
  }
  attr {
    key: "_output_shapes"
    value {
      list {
        shape {
          dim {
            size: 2
          }
          dim {
            size: 10
          }
        }
        shape {
        }
      }
    }
  }
}
node {
  name: "seq2seq/encoder/word_level_encoder/bidirectional_rnn/fw/fw/while/Merge_4"
  op: "Merge"
  input: "seq2seq/encoder/word_level_encoder/bidirectional_rnn/fw/fw/while/Enter_4"
  input: "seq2seq/encoder/word_level_encoder/bidirectional_rnn/fw/fw/while/NextIteration_4"
  device: "/device:GPU:0"
  attr {
    key: "N"
    value {
      i: 2
    }
  }
  attr {
    key: "T"
    value {
      type: DT_FLOAT
    }
  }
  attr {
    key: "_output_shapes"
    value {
      list {
        shape {
          dim {
            size: 2
          }
          dim {
            size: 10
          }
        }
        shape {
        }
      }
    }
  }
}
node {
  name: "seq2seq/encoder/word_level_encoder/bidirectional_rnn/fw/fw/while/Less"
  op: "Less"
  input: "seq2seq/encoder/word_level_encoder/bidirectional_rnn/fw/fw/while/Merge"
  input: "seq2seq/encoder/word_level_encoder/bidirectional_rnn/fw/fw/while/Less/Enter"
  device: "/device:GPU:0"
  attr {
    key: "T"
    value {
      type: DT_INT32
    }
  }
  attr {
    key: "_output_shapes"
    value {
      list {
        shape {
        }
      }
    }
  }
}
node {
  name: "seq2seq/encoder/word_level_encoder/bidirectional_rnn/fw/fw/while/Less/Enter"
  op: "Enter"
  input: "seq2seq/encoder/word_level_encoder/bidirectional_rnn/fw/fw/strided_slice"
  device: "/device:GPU:0"
  attr {
    key: "T"
    value {
      type: DT_INT32
    }
  }
  attr {
    key: "_output_shapes"
    value {
      list {
        shape {
        }
      }
    }
  }
  attr {
    key: "frame_name"
    value {
      s: "seq2seq/encoder/word_level_encoder/bidirectional_rnn/fw/fw/while/while_context"
    }
  }
  attr {
    key: "is_constant"
    value {
      b: true
    }
  }
  attr {
    key: "parallel_iterations"
    value {
      i: 32
    }
  }
}
node {
  name: "seq2seq/encoder/word_level_encoder/bidirectional_rnn/fw/fw/while/Less_1"
  op: "Less"
  input: "seq2seq/encoder/word_level_encoder/bidirectional_rnn/fw/fw/while/Merge_1"
  input: "seq2seq/encoder/word_level_encoder/bidirectional_rnn/fw/fw/while/Less_1/Enter"
  device: "/device:GPU:0"
  attr {
    key: "T"
    value {
      type: DT_INT32
    }
  }
  attr {
    key: "_output_shapes"
    value {
      list {
        shape {
        }
      }
    }
  }
}
node {
  name: "seq2seq/encoder/word_level_encoder/bidirectional_rnn/fw/fw/while/Less_1/Enter"
  op: "Enter"
  input: "seq2seq/encoder/word_level_encoder/bidirectional_rnn/fw/fw/Minimum"
  device: "/device:GPU:0"
  attr {
    key: "T"
    value {
      type: DT_INT32
    }
  }
  attr {
    key: "_output_shapes"
    value {
      list {
        shape {
        }
      }
    }
  }
  attr {
    key: "frame_name"
    value {
      s: "seq2seq/encoder/word_level_encoder/bidirectional_rnn/fw/fw/while/while_context"
    }
  }
  attr {
    key: "is_constant"
    value {
      b: true
    }
  }
  attr {
    key: "parallel_iterations"
    value {
      i: 32
    }
  }
}
node {
  name: "seq2seq/encoder/word_level_encoder/bidirectional_rnn/fw/fw/while/LogicalAnd"
  op: "LogicalAnd"
  input: "seq2seq/encoder/word_level_encoder/bidirectional_rnn/fw/fw/while/Less"
  input: "seq2seq/encoder/word_level_encoder/bidirectional_rnn/fw/fw/while/Less_1"
  device: "/device:GPU:0"
  attr {
    key: "_output_shapes"
    value {
      list {
        shape {
        }
      }
    }
  }
}
node {
  name: "seq2seq/encoder/word_level_encoder/bidirectional_rnn/fw/fw/while/LoopCond"
  op: "LoopCond"
  input: "seq2seq/encoder/word_level_encoder/bidirectional_rnn/fw/fw/while/LogicalAnd"
  device: "/device:GPU:0"
  attr {
    key: "_output_shapes"
    value {
      list {
        shape {
        }
      }
    }
  }
}
node {
  name: "seq2seq/encoder/word_level_encoder/bidirectional_rnn/fw/fw/while/Switch"
  op: "Switch"
  input: "seq2seq/encoder/word_level_encoder/bidirectional_rnn/fw/fw/while/Merge"
  input: "seq2seq/encoder/word_level_encoder/bidirectional_rnn/fw/fw/while/LoopCond"
  device: "/device:GPU:0"
  attr {
    key: "T"
    value {
      type: DT_INT32
    }
  }
  attr {
    key: "_class"
    value {
      list {
        s: "loc:@seq2seq/encoder/word_level_encoder/bidirectional_rnn/fw/fw/while/Merge"
      }
    }
  }
  attr {
    key: "_output_shapes"
    value {
      list {
        shape {
        }
        shape {
        }
      }
    }
  }
}
node {
  name: "seq2seq/encoder/word_level_encoder/bidirectional_rnn/fw/fw/while/Switch_1"
  op: "Switch"
  input: "seq2seq/encoder/word_level_encoder/bidirectional_rnn/fw/fw/while/Merge_1"
  input: "seq2seq/encoder/word_level_encoder/bidirectional_rnn/fw/fw/while/LoopCond"
  device: "/device:GPU:0"
  attr {
    key: "T"
    value {
      type: DT_INT32
    }
  }
  attr {
    key: "_class"
    value {
      list {
        s: "loc:@seq2seq/encoder/word_level_encoder/bidirectional_rnn/fw/fw/while/Merge_1"
      }
    }
  }
  attr {
    key: "_output_shapes"
    value {
      list {
        shape {
        }
        shape {
        }
      }
    }
  }
}
node {
  name: "seq2seq/encoder/word_level_encoder/bidirectional_rnn/fw/fw/while/Switch_2"
  op: "Switch"
  input: "seq2seq/encoder/word_level_encoder/bidirectional_rnn/fw/fw/while/Merge_2"
  input: "seq2seq/encoder/word_level_encoder/bidirectional_rnn/fw/fw/while/LoopCond"
  device: "/device:GPU:0"
  attr {
    key: "T"
    value {
      type: DT_FLOAT
    }
  }
  attr {
    key: "_class"
    value {
      list {
        s: "loc:@seq2seq/encoder/word_level_encoder/bidirectional_rnn/fw/fw/while/Merge_2"
      }
    }
  }
  attr {
    key: "_output_shapes"
    value {
      list {
        shape {
        }
        shape {
        }
      }
    }
  }
}
node {
  name: "seq2seq/encoder/word_level_encoder/bidirectional_rnn/fw/fw/while/Switch_3"
  op: "Switch"
  input: "seq2seq/encoder/word_level_encoder/bidirectional_rnn/fw/fw/while/Merge_3"
  input: "seq2seq/encoder/word_level_encoder/bidirectional_rnn/fw/fw/while/LoopCond"
  device: "/device:GPU:0"
  attr {
    key: "T"
    value {
      type: DT_FLOAT
    }
  }
  attr {
    key: "_class"
    value {
      list {
        s: "loc:@seq2seq/encoder/word_level_encoder/bidirectional_rnn/fw/fw/while/Merge_3"
      }
    }
  }
  attr {
    key: "_output_shapes"
    value {
      list {
        shape {
          dim {
            size: 2
          }
          dim {
            size: 10
          }
        }
        shape {
          dim {
            size: 2
          }
          dim {
            size: 10
          }
        }
      }
    }
  }
}
node {
  name: "seq2seq/encoder/word_level_encoder/bidirectional_rnn/fw/fw/while/Switch_4"
  op: "Switch"
  input: "seq2seq/encoder/word_level_encoder/bidirectional_rnn/fw/fw/while/Merge_4"
  input: "seq2seq/encoder/word_level_encoder/bidirectional_rnn/fw/fw/while/LoopCond"
  device: "/device:GPU:0"
  attr {
    key: "T"
    value {
      type: DT_FLOAT
    }
  }
  attr {
    key: "_class"
    value {
      list {
        s: "loc:@seq2seq/encoder/word_level_encoder/bidirectional_rnn/fw/fw/while/Merge_4"
      }
    }
  }
  attr {
    key: "_output_shapes"
    value {
      list {
        shape {
          dim {
            size: 2
          }
          dim {
            size: 10
          }
        }
        shape {
          dim {
            size: 2
          }
          dim {
            size: 10
          }
        }
      }
    }
  }
}
node {
  name: "seq2seq/encoder/word_level_encoder/bidirectional_rnn/fw/fw/while/Identity"
  op: "Identity"
  input: "seq2seq/encoder/word_level_encoder/bidirectional_rnn/fw/fw/while/Switch:1"
  device: "/device:GPU:0"
  attr {
    key: "T"
    value {
      type: DT_INT32
    }
  }
  attr {
    key: "_output_shapes"
    value {
      list {
        shape {
        }
      }
    }
  }
}
node {
  name: "seq2seq/encoder/word_level_encoder/bidirectional_rnn/fw/fw/while/Identity_1"
  op: "Identity"
  input: "seq2seq/encoder/word_level_encoder/bidirectional_rnn/fw/fw/while/Switch_1:1"
  device: "/device:GPU:0"
  attr {
    key: "T"
    value {
      type: DT_INT32
    }
  }
  attr {
    key: "_output_shapes"
    value {
      list {
        shape {
        }
      }
    }
  }
}
node {
  name: "seq2seq/encoder/word_level_encoder/bidirectional_rnn/fw/fw/while/Identity_2"
  op: "Identity"
  input: "seq2seq/encoder/word_level_encoder/bidirectional_rnn/fw/fw/while/Switch_2:1"
  device: "/device:GPU:0"
  attr {
    key: "T"
    value {
      type: DT_FLOAT
    }
  }
  attr {
    key: "_output_shapes"
    value {
      list {
        shape {
        }
      }
    }
  }
}
node {
  name: "seq2seq/encoder/word_level_encoder/bidirectional_rnn/fw/fw/while/Identity_3"
  op: "Identity"
  input: "seq2seq/encoder/word_level_encoder/bidirectional_rnn/fw/fw/while/Switch_3:1"
  device: "/device:GPU:0"
  attr {
    key: "T"
    value {
      type: DT_FLOAT
    }
  }
  attr {
    key: "_output_shapes"
    value {
      list {
        shape {
          dim {
            size: 2
          }
          dim {
            size: 10
          }
        }
      }
    }
  }
}
node {
  name: "seq2seq/encoder/word_level_encoder/bidirectional_rnn/fw/fw/while/Identity_4"
  op: "Identity"
  input: "seq2seq/encoder/word_level_encoder/bidirectional_rnn/fw/fw/while/Switch_4:1"
  device: "/device:GPU:0"
  attr {
    key: "T"
    value {
      type: DT_FLOAT
    }
  }
  attr {
    key: "_output_shapes"
    value {
      list {
        shape {
          dim {
            size: 2
          }
          dim {
            size: 10
          }
        }
      }
    }
  }
}
node {
  name: "seq2seq/encoder/word_level_encoder/bidirectional_rnn/fw/fw/while/add/y"
  op: "Const"
  input: "^seq2seq/encoder/word_level_encoder/bidirectional_rnn/fw/fw/while/Identity"
  device: "/device:GPU:0"
  attr {
    key: "_output_shapes"
    value {
      list {
        shape {
        }
      }
    }
  }
  attr {
    key: "dtype"
    value {
      type: DT_INT32
    }
  }
  attr {
    key: "value"
    value {
      tensor {
        dtype: DT_INT32
        tensor_shape {
        }
        int_val: 1
      }
    }
  }
}
node {
  name: "seq2seq/encoder/word_level_encoder/bidirectional_rnn/fw/fw/while/add"
  op: "AddV2"
  input: "seq2seq/encoder/word_level_encoder/bidirectional_rnn/fw/fw/while/Identity"
  input: "seq2seq/encoder/word_level_encoder/bidirectional_rnn/fw/fw/while/add/y"
  device: "/device:GPU:0"
  attr {
    key: "T"
    value {
      type: DT_INT32
    }
  }
  attr {
    key: "_output_shapes"
    value {
      list {
        shape {
        }
      }
    }
  }
}
node {
  name: "seq2seq/encoder/word_level_encoder/bidirectional_rnn/fw/fw/while/TensorArrayReadV3"
  op: "TensorArrayReadV3"
  input: "seq2seq/encoder/word_level_encoder/bidirectional_rnn/fw/fw/while/TensorArrayReadV3/Enter"
  input: "seq2seq/encoder/word_level_encoder/bidirectional_rnn/fw/fw/while/Identity_1"
  input: "seq2seq/encoder/word_level_encoder/bidirectional_rnn/fw/fw/while/TensorArrayReadV3/Enter_1"
  device: "/device:GPU:0"
  attr {
    key: "_output_shapes"
    value {
      list {
        shape {
          dim {
            size: 2
          }
          dim {
            size: 10
          }
        }
      }
    }
  }
  attr {
    key: "dtype"
    value {
      type: DT_FLOAT
    }
  }
}
node {
  name: "seq2seq/encoder/word_level_encoder/bidirectional_rnn/fw/fw/while/TensorArrayReadV3/Enter"
  op: "Enter"
  input: "seq2seq/encoder/word_level_encoder/bidirectional_rnn/fw/fw/TensorArray_1"
  device: "/device:GPU:0"
  attr {
    key: "T"
    value {
      type: DT_RESOURCE
    }
  }
  attr {
    key: "_output_shapes"
    value {
      list {
        shape {
          dim {
            size: 2
          }
        }
      }
    }
  }
  attr {
    key: "frame_name"
    value {
      s: "seq2seq/encoder/word_level_encoder/bidirectional_rnn/fw/fw/while/while_context"
    }
  }
  attr {
    key: "is_constant"
    value {
      b: true
    }
  }
  attr {
    key: "parallel_iterations"
    value {
      i: 32
    }
  }
}
node {
  name: "seq2seq/encoder/word_level_encoder/bidirectional_rnn/fw/fw/while/TensorArrayReadV3/Enter_1"
  op: "Enter"
  input: "seq2seq/encoder/word_level_encoder/bidirectional_rnn/fw/fw/TensorArrayUnstack/TensorArrayScatter/TensorArrayScatterV3"
  device: "/device:GPU:0"
  attr {
    key: "T"
    value {
      type: DT_FLOAT
    }
  }
  attr {
    key: "_output_shapes"
    value {
      list {
        shape {
        }
      }
    }
  }
  attr {
    key: "frame_name"
    value {
      s: "seq2seq/encoder/word_level_encoder/bidirectional_rnn/fw/fw/while/while_context"
    }
  }
  attr {
    key: "is_constant"
    value {
      b: true
    }
  }
  attr {
    key: "parallel_iterations"
    value {
      i: 32
    }
  }
}
node {
  name: "seq2seq/encoder/word_level_encoder/bidirectional_rnn/fw/fw/while/GreaterEqual"
  op: "GreaterEqual"
  input: "seq2seq/encoder/word_level_encoder/bidirectional_rnn/fw/fw/while/Identity_1"
  input: "seq2seq/encoder/word_level_encoder/bidirectional_rnn/fw/fw/while/GreaterEqual/Enter"
  device: "/device:GPU:0"
  attr {
    key: "T"
    value {
      type: DT_INT32
    }
  }
  attr {
    key: "_output_shapes"
    value {
      list {
        shape {
          dim {
            size: 2
          }
        }
      }
    }
  }
}
node {
  name: "seq2seq/encoder/word_level_encoder/bidirectional_rnn/fw/fw/while/GreaterEqual/Enter"
  op: "Enter"
  input: "seq2seq/encoder/word_level_encoder/bidirectional_rnn/fw/fw/CheckSeqLen"
  device: "/device:GPU:0"
  attr {
    key: "T"
    value {
      type: DT_INT32
    }
  }
  attr {
    key: "_output_shapes"
    value {
      list {
        shape {
          dim {
            size: 2
          }
        }
      }
    }
  }
  attr {
    key: "frame_name"
    value {
      s: "seq2seq/encoder/word_level_encoder/bidirectional_rnn/fw/fw/while/while_context"
    }
  }
  attr {
    key: "is_constant"
    value {
      b: true
    }
  }
  attr {
    key: "parallel_iterations"
    value {
      i: 32
    }
  }
}
node {
  name: "seq2seq/encoder/word_level_encoder/bidirectional_rnn/fw/lstm_cell/kernel/Initializer/random_uniform/shape"
  op: "Const"
  attr {
    key: "_class"
    value {
      list {
        s: "loc:@seq2seq/encoder/word_level_encoder/bidirectional_rnn/fw/lstm_cell/kernel"
      }
    }
  }
  attr {
    key: "_output_shapes"
    value {
      list {
        shape {
          dim {
            size: 2
          }
        }
      }
    }
  }
  attr {
    key: "dtype"
    value {
      type: DT_INT32
    }
  }
  attr {
    key: "value"
    value {
      tensor {
        dtype: DT_INT32
        tensor_shape {
          dim {
            size: 2
          }
        }
        tensor_content: "\024\000\000\000(\000\000\000"
      }
    }
  }
}
node {
  name: "seq2seq/encoder/word_level_encoder/bidirectional_rnn/fw/lstm_cell/kernel/Initializer/random_uniform/min"
  op: "Const"
  attr {
    key: "_class"
    value {
      list {
        s: "loc:@seq2seq/encoder/word_level_encoder/bidirectional_rnn/fw/lstm_cell/kernel"
      }
    }
  }
  attr {
    key: "_output_shapes"
    value {
      list {
        shape {
        }
      }
    }
  }
  attr {
    key: "dtype"
    value {
      type: DT_FLOAT
    }
  }
  attr {
    key: "value"
    value {
      tensor {
        dtype: DT_FLOAT
        tensor_shape {
        }
        float_val: -0.05000000074505806
      }
    }
  }
}
node {
  name: "seq2seq/encoder/word_level_encoder/bidirectional_rnn/fw/lstm_cell/kernel/Initializer/random_uniform/max"
  op: "Const"
  attr {
    key: "_class"
    value {
      list {
        s: "loc:@seq2seq/encoder/word_level_encoder/bidirectional_rnn/fw/lstm_cell/kernel"
      }
    }
  }
  attr {
    key: "_output_shapes"
    value {
      list {
        shape {
        }
      }
    }
  }
  attr {
    key: "dtype"
    value {
      type: DT_FLOAT
    }
  }
  attr {
    key: "value"
    value {
      tensor {
        dtype: DT_FLOAT
        tensor_shape {
        }
        float_val: 0.05000000074505806
      }
    }
  }
}
node {
  name: "seq2seq/encoder/word_level_encoder/bidirectional_rnn/fw/lstm_cell/kernel/Initializer/random_uniform/RandomUniform"
  op: "RandomUniform"
  input: "seq2seq/encoder/word_level_encoder/bidirectional_rnn/fw/lstm_cell/kernel/Initializer/random_uniform/shape"
  attr {
    key: "T"
    value {
      type: DT_INT32
    }
  }
  attr {
    key: "_class"
    value {
      list {
        s: "loc:@seq2seq/encoder/word_level_encoder/bidirectional_rnn/fw/lstm_cell/kernel"
      }
    }
  }
  attr {
    key: "_output_shapes"
    value {
      list {
        shape {
          dim {
            size: 20
          }
          dim {
            size: 40
          }
        }
      }
    }
  }
  attr {
    key: "dtype"
    value {
      type: DT_FLOAT
    }
  }
  attr {
    key: "seed"
    value {
      i: 111
    }
  }
  attr {
    key: "seed2"
    value {
      i: 123
    }
  }
}
node {
  name: "seq2seq/encoder/word_level_encoder/bidirectional_rnn/fw/lstm_cell/kernel/Initializer/random_uniform/sub"
  op: "Sub"
  input: "seq2seq/encoder/word_level_encoder/bidirectional_rnn/fw/lstm_cell/kernel/Initializer/random_uniform/max"
  input: "seq2seq/encoder/word_level_encoder/bidirectional_rnn/fw/lstm_cell/kernel/Initializer/random_uniform/min"
  attr {
    key: "T"
    value {
      type: DT_FLOAT
    }
  }
  attr {
    key: "_class"
    value {
      list {
        s: "loc:@seq2seq/encoder/word_level_encoder/bidirectional_rnn/fw/lstm_cell/kernel"
      }
    }
  }
  attr {
    key: "_output_shapes"
    value {
      list {
        shape {
        }
      }
    }
  }
}
node {
  name: "seq2seq/encoder/word_level_encoder/bidirectional_rnn/fw/lstm_cell/kernel/Initializer/random_uniform/mul"
  op: "Mul"
  input: "seq2seq/encoder/word_level_encoder/bidirectional_rnn/fw/lstm_cell/kernel/Initializer/random_uniform/RandomUniform"
  input: "seq2seq/encoder/word_level_encoder/bidirectional_rnn/fw/lstm_cell/kernel/Initializer/random_uniform/sub"
  attr {
    key: "T"
    value {
      type: DT_FLOAT
    }
  }
  attr {
    key: "_class"
    value {
      list {
        s: "loc:@seq2seq/encoder/word_level_encoder/bidirectional_rnn/fw/lstm_cell/kernel"
      }
    }
  }
  attr {
    key: "_output_shapes"
    value {
      list {
        shape {
          dim {
            size: 20
          }
          dim {
            size: 40
          }
        }
      }
    }
  }
}
node {
  name: "seq2seq/encoder/word_level_encoder/bidirectional_rnn/fw/lstm_cell/kernel/Initializer/random_uniform"
  op: "Add"
  input: "seq2seq/encoder/word_level_encoder/bidirectional_rnn/fw/lstm_cell/kernel/Initializer/random_uniform/mul"
  input: "seq2seq/encoder/word_level_encoder/bidirectional_rnn/fw/lstm_cell/kernel/Initializer/random_uniform/min"
  attr {
    key: "T"
    value {
      type: DT_FLOAT
    }
  }
  attr {
    key: "_class"
    value {
      list {
        s: "loc:@seq2seq/encoder/word_level_encoder/bidirectional_rnn/fw/lstm_cell/kernel"
      }
    }
  }
  attr {
    key: "_output_shapes"
    value {
      list {
        shape {
          dim {
            size: 20
          }
          dim {
            size: 40
          }
        }
      }
    }
  }
}
node {
  name: "seq2seq/encoder/word_level_encoder/bidirectional_rnn/fw/lstm_cell/kernel"
  op: "VariableV2"
  device: "/device:GPU:0"
  attr {
    key: "_class"
    value {
      list {
        s: "loc:@seq2seq/encoder/word_level_encoder/bidirectional_rnn/fw/lstm_cell/kernel"
      }
    }
  }
  attr {
    key: "_output_shapes"
    value {
      list {
        shape {
          dim {
            size: 20
          }
          dim {
            size: 40
          }
        }
      }
    }
  }
  attr {
    key: "container"
    value {
      s: ""
    }
  }
  attr {
    key: "dtype"
    value {
      type: DT_FLOAT
    }
  }
  attr {
    key: "shape"
    value {
      shape {
        dim {
          size: 20
        }
        dim {
          size: 40
        }
      }
    }
  }
  attr {
    key: "shared_name"
    value {
      s: ""
    }
  }
}
node {
  name: "seq2seq/encoder/word_level_encoder/bidirectional_rnn/fw/lstm_cell/kernel/Assign"
  op: "Assign"
  input: "seq2seq/encoder/word_level_encoder/bidirectional_rnn/fw/lstm_cell/kernel"
  input: "seq2seq/encoder/word_level_encoder/bidirectional_rnn/fw/lstm_cell/kernel/Initializer/random_uniform"
  device: "/device:GPU:0"
  attr {
    key: "T"
    value {
      type: DT_FLOAT
    }
  }
  attr {
    key: "_class"
    value {
      list {
        s: "loc:@seq2seq/encoder/word_level_encoder/bidirectional_rnn/fw/lstm_cell/kernel"
      }
    }
  }
  attr {
    key: "_output_shapes"
    value {
      list {
        shape {
          dim {
            size: 20
          }
          dim {
            size: 40
          }
        }
      }
    }
  }
  attr {
    key: "use_locking"
    value {
      b: true
    }
  }
  attr {
    key: "validate_shape"
    value {
      b: true
    }
  }
}
node {
  name: "seq2seq/encoder/word_level_encoder/bidirectional_rnn/fw/lstm_cell/kernel/read"
  op: "Identity"
  input: "seq2seq/encoder/word_level_encoder/bidirectional_rnn/fw/lstm_cell/kernel"
  device: "/device:GPU:0"
  attr {
    key: "T"
    value {
      type: DT_FLOAT
    }
  }
  attr {
    key: "_output_shapes"
    value {
      list {
        shape {
          dim {
            size: 20
          }
          dim {
            size: 40
          }
        }
      }
    }
  }
}
node {
  name: "seq2seq/encoder/word_level_encoder/bidirectional_rnn/fw/lstm_cell/bias/Initializer/zeros"
  op: "Const"
  attr {
    key: "_class"
    value {
      list {
        s: "loc:@seq2seq/encoder/word_level_encoder/bidirectional_rnn/fw/lstm_cell/bias"
      }
    }
  }
  attr {
    key: "_output_shapes"
    value {
      list {
        shape {
          dim {
            size: 40
          }
        }
      }
    }
  }
  attr {
    key: "dtype"
    value {
      type: DT_FLOAT
    }
  }
  attr {
    key: "value"
    value {
      tensor {
        dtype: DT_FLOAT
        tensor_shape {
          dim {
            size: 40
          }
        }
        float_val: 0.0
      }
    }
  }
}
node {
  name: "seq2seq/encoder/word_level_encoder/bidirectional_rnn/fw/lstm_cell/bias"
  op: "VariableV2"
  device: "/device:GPU:0"
  attr {
    key: "_class"
    value {
      list {
        s: "loc:@seq2seq/encoder/word_level_encoder/bidirectional_rnn/fw/lstm_cell/bias"
      }
    }
  }
  attr {
    key: "_output_shapes"
    value {
      list {
        shape {
          dim {
            size: 40
          }
        }
      }
    }
  }
  attr {
    key: "container"
    value {
      s: ""
    }
  }
  attr {
    key: "dtype"
    value {
      type: DT_FLOAT
    }
  }
  attr {
    key: "shape"
    value {
      shape {
        dim {
          size: 40
        }
      }
    }
  }
  attr {
    key: "shared_name"
    value {
      s: ""
    }
  }
}
node {
  name: "seq2seq/encoder/word_level_encoder/bidirectional_rnn/fw/lstm_cell/bias/Assign"
  op: "Assign"
  input: "seq2seq/encoder/word_level_encoder/bidirectional_rnn/fw/lstm_cell/bias"
  input: "seq2seq/encoder/word_level_encoder/bidirectional_rnn/fw/lstm_cell/bias/Initializer/zeros"
  device: "/device:GPU:0"
  attr {
    key: "T"
    value {
      type: DT_FLOAT
    }
  }
  attr {
    key: "_class"
    value {
      list {
        s: "loc:@seq2seq/encoder/word_level_encoder/bidirectional_rnn/fw/lstm_cell/bias"
      }
    }
  }
  attr {
    key: "_output_shapes"
    value {
      list {
        shape {
          dim {
            size: 40
          }
        }
      }
    }
  }
  attr {
    key: "use_locking"
    value {
      b: true
    }
  }
  attr {
    key: "validate_shape"
    value {
      b: true
    }
  }
}
node {
  name: "seq2seq/encoder/word_level_encoder/bidirectional_rnn/fw/lstm_cell/bias/read"
  op: "Identity"
  input: "seq2seq/encoder/word_level_encoder/bidirectional_rnn/fw/lstm_cell/bias"
  device: "/device:GPU:0"
  attr {
    key: "T"
    value {
      type: DT_FLOAT
    }
  }
  attr {
    key: "_output_shapes"
    value {
      list {
        shape {
          dim {
            size: 40
          }
        }
      }
    }
  }
}
node {
  name: "seq2seq/encoder/word_level_encoder/bidirectional_rnn/fw/fw/while/lstm_cell/concat/axis"
  op: "Const"
  input: "^seq2seq/encoder/word_level_encoder/bidirectional_rnn/fw/fw/while/Identity"
  device: "/device:GPU:0"
  attr {
    key: "_output_shapes"
    value {
      list {
        shape {
        }
      }
    }
  }
  attr {
    key: "dtype"
    value {
      type: DT_INT32
    }
  }
  attr {
    key: "value"
    value {
      tensor {
        dtype: DT_INT32
        tensor_shape {
        }
        int_val: 1
      }
    }
  }
}
node {
  name: "seq2seq/encoder/word_level_encoder/bidirectional_rnn/fw/fw/while/lstm_cell/concat"
  op: "ConcatV2"
  input: "seq2seq/encoder/word_level_encoder/bidirectional_rnn/fw/fw/while/TensorArrayReadV3"
  input: "seq2seq/encoder/word_level_encoder/bidirectional_rnn/fw/fw/while/Identity_4"
  input: "seq2seq/encoder/word_level_encoder/bidirectional_rnn/fw/fw/while/lstm_cell/concat/axis"
  device: "/device:GPU:0"
  attr {
    key: "N"
    value {
      i: 2
    }
  }
  attr {
    key: "T"
    value {
      type: DT_FLOAT
    }
  }
  attr {
    key: "Tidx"
    value {
      type: DT_INT32
    }
  }
  attr {
    key: "_output_shapes"
    value {
      list {
        shape {
          dim {
            size: 2
          }
          dim {
            size: 20
          }
        }
      }
    }
  }
}
node {
  name: "seq2seq/encoder/word_level_encoder/bidirectional_rnn/fw/fw/while/lstm_cell/MatMul"
  op: "MatMul"
  input: "seq2seq/encoder/word_level_encoder/bidirectional_rnn/fw/fw/while/lstm_cell/concat"
  input: "seq2seq/encoder/word_level_encoder/bidirectional_rnn/fw/fw/while/lstm_cell/MatMul/Enter"
  device: "/device:GPU:0"
  attr {
    key: "T"
    value {
      type: DT_FLOAT
    }
  }
  attr {
    key: "_output_shapes"
    value {
      list {
        shape {
          dim {
            size: 2
          }
          dim {
            size: 40
          }
        }
      }
    }
  }
  attr {
    key: "transpose_a"
    value {
      b: false
    }
  }
  attr {
    key: "transpose_b"
    value {
      b: false
    }
  }
}
node {
  name: "seq2seq/encoder/word_level_encoder/bidirectional_rnn/fw/fw/while/lstm_cell/MatMul/Enter"
  op: "Enter"
  input: "seq2seq/encoder/word_level_encoder/bidirectional_rnn/fw/lstm_cell/kernel/read"
  device: "/device:GPU:0"
  attr {
    key: "T"
    value {
      type: DT_FLOAT
    }
  }
  attr {
    key: "_output_shapes"
    value {
      list {
        shape {
          dim {
            size: 20
          }
          dim {
            size: 40
          }
        }
      }
    }
  }
  attr {
    key: "frame_name"
    value {
      s: "seq2seq/encoder/word_level_encoder/bidirectional_rnn/fw/fw/while/while_context"
    }
  }
  attr {
    key: "is_constant"
    value {
      b: true
    }
  }
  attr {
    key: "parallel_iterations"
    value {
      i: 32
    }
  }
}
node {
  name: "seq2seq/encoder/word_level_encoder/bidirectional_rnn/fw/fw/while/lstm_cell/BiasAdd"
  op: "BiasAdd"
  input: "seq2seq/encoder/word_level_encoder/bidirectional_rnn/fw/fw/while/lstm_cell/MatMul"
  input: "seq2seq/encoder/word_level_encoder/bidirectional_rnn/fw/fw/while/lstm_cell/BiasAdd/Enter"
  device: "/device:GPU:0"
  attr {
    key: "T"
    value {
      type: DT_FLOAT
    }
  }
  attr {
    key: "_output_shapes"
    value {
      list {
        shape {
          dim {
            size: 2
          }
          dim {
            size: 40
          }
        }
      }
    }
  }
  attr {
    key: "data_format"
    value {
      s: "NHWC"
    }
  }
}
node {
  name: "seq2seq/encoder/word_level_encoder/bidirectional_rnn/fw/fw/while/lstm_cell/BiasAdd/Enter"
  op: "Enter"
  input: "seq2seq/encoder/word_level_encoder/bidirectional_rnn/fw/lstm_cell/bias/read"
  device: "/device:GPU:0"
  attr {
    key: "T"
    value {
      type: DT_FLOAT
    }
  }
  attr {
    key: "_output_shapes"
    value {
      list {
        shape {
          dim {
            size: 40
          }
        }
      }
    }
  }
  attr {
    key: "frame_name"
    value {
      s: "seq2seq/encoder/word_level_encoder/bidirectional_rnn/fw/fw/while/while_context"
    }
  }
  attr {
    key: "is_constant"
    value {
      b: true
    }
  }
  attr {
    key: "parallel_iterations"
    value {
      i: 32
    }
  }
}
node {
  name: "seq2seq/encoder/word_level_encoder/bidirectional_rnn/fw/fw/while/lstm_cell/Const"
  op: "Const"
  input: "^seq2seq/encoder/word_level_encoder/bidirectional_rnn/fw/fw/while/Identity"
  device: "/device:GPU:0"
  attr {
    key: "_output_shapes"
    value {
      list {
        shape {
        }
      }
    }
  }
  attr {
    key: "dtype"
    value {
      type: DT_INT32
    }
  }
  attr {
    key: "value"
    value {
      tensor {
        dtype: DT_INT32
        tensor_shape {
        }
        int_val: 4
      }
    }
  }
}
node {
  name: "seq2seq/encoder/word_level_encoder/bidirectional_rnn/fw/fw/while/lstm_cell/split/split_dim"
  op: "Const"
  input: "^seq2seq/encoder/word_level_encoder/bidirectional_rnn/fw/fw/while/Identity"
  device: "/device:GPU:0"
  attr {
    key: "_output_shapes"
    value {
      list {
        shape {
        }
      }
    }
  }
  attr {
    key: "dtype"
    value {
      type: DT_INT32
    }
  }
  attr {
    key: "value"
    value {
      tensor {
        dtype: DT_INT32
        tensor_shape {
        }
        int_val: 1
      }
    }
  }
}
node {
  name: "seq2seq/encoder/word_level_encoder/bidirectional_rnn/fw/fw/while/lstm_cell/split"
  op: "Split"
  input: "seq2seq/encoder/word_level_encoder/bidirectional_rnn/fw/fw/while/lstm_cell/split/split_dim"
  input: "seq2seq/encoder/word_level_encoder/bidirectional_rnn/fw/fw/while/lstm_cell/BiasAdd"
  device: "/device:GPU:0"
  attr {
    key: "T"
    value {
      type: DT_FLOAT
    }
  }
  attr {
    key: "_output_shapes"
    value {
      list {
        shape {
          dim {
            size: 2
          }
          dim {
            size: 10
          }
        }
        shape {
          dim {
            size: 2
          }
          dim {
            size: 10
          }
        }
        shape {
          dim {
            size: 2
          }
          dim {
            size: 10
          }
        }
        shape {
          dim {
            size: 2
          }
          dim {
            size: 10
          }
        }
      }
    }
  }
  attr {
    key: "num_split"
    value {
      i: 4
    }
  }
}
node {
  name: "seq2seq/encoder/word_level_encoder/bidirectional_rnn/fw/fw/while/lstm_cell/add/y"
  op: "Const"
  input: "^seq2seq/encoder/word_level_encoder/bidirectional_rnn/fw/fw/while/Identity"
  device: "/device:GPU:0"
  attr {
    key: "_output_shapes"
    value {
      list {
        shape {
        }
      }
    }
  }
  attr {
    key: "dtype"
    value {
      type: DT_FLOAT
    }
  }
  attr {
    key: "value"
    value {
      tensor {
        dtype: DT_FLOAT
        tensor_shape {
        }
        float_val: 1.0
      }
    }
  }
}
node {
  name: "seq2seq/encoder/word_level_encoder/bidirectional_rnn/fw/fw/while/lstm_cell/add"
  op: "AddV2"
  input: "seq2seq/encoder/word_level_encoder/bidirectional_rnn/fw/fw/while/lstm_cell/split:2"
  input: "seq2seq/encoder/word_level_encoder/bidirectional_rnn/fw/fw/while/lstm_cell/add/y"
  device: "/device:GPU:0"
  attr {
    key: "T"
    value {
      type: DT_FLOAT
    }
  }
  attr {
    key: "_output_shapes"
    value {
      list {
        shape {
          dim {
            size: 2
          }
          dim {
            size: 10
          }
        }
      }
    }
  }
}
node {
  name: "seq2seq/encoder/word_level_encoder/bidirectional_rnn/fw/fw/while/lstm_cell/Sigmoid"
  op: "Sigmoid"
  input: "seq2seq/encoder/word_level_encoder/bidirectional_rnn/fw/fw/while/lstm_cell/add"
  device: "/device:GPU:0"
  attr {
    key: "T"
    value {
      type: DT_FLOAT
    }
  }
  attr {
    key: "_output_shapes"
    value {
      list {
        shape {
          dim {
            size: 2
          }
          dim {
            size: 10
          }
        }
      }
    }
  }
}
node {
  name: "seq2seq/encoder/word_level_encoder/bidirectional_rnn/fw/fw/while/lstm_cell/mul"
  op: "Mul"
  input: "seq2seq/encoder/word_level_encoder/bidirectional_rnn/fw/fw/while/lstm_cell/Sigmoid"
  input: "seq2seq/encoder/word_level_encoder/bidirectional_rnn/fw/fw/while/Identity_3"
  device: "/device:GPU:0"
  attr {
    key: "T"
    value {
      type: DT_FLOAT
    }
  }
  attr {
    key: "_output_shapes"
    value {
      list {
        shape {
          dim {
            size: 2
          }
          dim {
            size: 10
          }
        }
      }
    }
  }
}
node {
  name: "seq2seq/encoder/word_level_encoder/bidirectional_rnn/fw/fw/while/lstm_cell/Sigmoid_1"
  op: "Sigmoid"
  input: "seq2seq/encoder/word_level_encoder/bidirectional_rnn/fw/fw/while/lstm_cell/split"
  device: "/device:GPU:0"
  attr {
    key: "T"
    value {
      type: DT_FLOAT
    }
  }
  attr {
    key: "_output_shapes"
    value {
      list {
        shape {
          dim {
            size: 2
          }
          dim {
            size: 10
          }
        }
      }
    }
  }
}
node {
  name: "seq2seq/encoder/word_level_encoder/bidirectional_rnn/fw/fw/while/lstm_cell/Tanh"
  op: "Tanh"
  input: "seq2seq/encoder/word_level_encoder/bidirectional_rnn/fw/fw/while/lstm_cell/split:1"
  device: "/device:GPU:0"
  attr {
    key: "T"
    value {
      type: DT_FLOAT
    }
  }
  attr {
    key: "_output_shapes"
    value {
      list {
        shape {
          dim {
            size: 2
          }
          dim {
            size: 10
          }
        }
      }
    }
  }
}
node {
  name: "seq2seq/encoder/word_level_encoder/bidirectional_rnn/fw/fw/while/lstm_cell/mul_1"
  op: "Mul"
  input: "seq2seq/encoder/word_level_encoder/bidirectional_rnn/fw/fw/while/lstm_cell/Sigmoid_1"
  input: "seq2seq/encoder/word_level_encoder/bidirectional_rnn/fw/fw/while/lstm_cell/Tanh"
  device: "/device:GPU:0"
  attr {
    key: "T"
    value {
      type: DT_FLOAT
    }
  }
  attr {
    key: "_output_shapes"
    value {
      list {
        shape {
          dim {
            size: 2
          }
          dim {
            size: 10
          }
        }
      }
    }
  }
}
node {
  name: "seq2seq/encoder/word_level_encoder/bidirectional_rnn/fw/fw/while/lstm_cell/add_1"
  op: "AddV2"
  input: "seq2seq/encoder/word_level_encoder/bidirectional_rnn/fw/fw/while/lstm_cell/mul"
  input: "seq2seq/encoder/word_level_encoder/bidirectional_rnn/fw/fw/while/lstm_cell/mul_1"
  device: "/device:GPU:0"
  attr {
    key: "T"
    value {
      type: DT_FLOAT
    }
  }
  attr {
    key: "_output_shapes"
    value {
      list {
        shape {
          dim {
            size: 2
          }
          dim {
            size: 10
          }
        }
      }
    }
  }
}
node {
  name: "seq2seq/encoder/word_level_encoder/bidirectional_rnn/fw/fw/while/lstm_cell/Sigmoid_2"
  op: "Sigmoid"
  input: "seq2seq/encoder/word_level_encoder/bidirectional_rnn/fw/fw/while/lstm_cell/split:3"
  device: "/device:GPU:0"
  attr {
    key: "T"
    value {
      type: DT_FLOAT
    }
  }
  attr {
    key: "_output_shapes"
    value {
      list {
        shape {
          dim {
            size: 2
          }
          dim {
            size: 10
          }
        }
      }
    }
  }
}
node {
  name: "seq2seq/encoder/word_level_encoder/bidirectional_rnn/fw/fw/while/lstm_cell/Tanh_1"
  op: "Tanh"
  input: "seq2seq/encoder/word_level_encoder/bidirectional_rnn/fw/fw/while/lstm_cell/add_1"
  device: "/device:GPU:0"
  attr {
    key: "T"
    value {
      type: DT_FLOAT
    }
  }
  attr {
    key: "_output_shapes"
    value {
      list {
        shape {
          dim {
            size: 2
          }
          dim {
            size: 10
          }
        }
      }
    }
  }
}
node {
  name: "seq2seq/encoder/word_level_encoder/bidirectional_rnn/fw/fw/while/lstm_cell/mul_2"
  op: "Mul"
  input: "seq2seq/encoder/word_level_encoder/bidirectional_rnn/fw/fw/while/lstm_cell/Sigmoid_2"
  input: "seq2seq/encoder/word_level_encoder/bidirectional_rnn/fw/fw/while/lstm_cell/Tanh_1"
  device: "/device:GPU:0"
  attr {
    key: "T"
    value {
      type: DT_FLOAT
    }
  }
  attr {
    key: "_output_shapes"
    value {
      list {
        shape {
          dim {
            size: 2
          }
          dim {
            size: 10
          }
        }
      }
    }
  }
}
node {
  name: "seq2seq/encoder/word_level_encoder/bidirectional_rnn/fw/fw/while/dropout/rate"
  op: "Const"
  input: "^seq2seq/encoder/word_level_encoder/bidirectional_rnn/fw/fw/while/Identity"
  device: "/device:GPU:0"
  attr {
    key: "_output_shapes"
    value {
      list {
        shape {
        }
      }
    }
  }
  attr {
    key: "dtype"
    value {
      type: DT_FLOAT
    }
  }
  attr {
    key: "value"
    value {
      tensor {
        dtype: DT_FLOAT
        tensor_shape {
        }
        float_val: 0.25
      }
    }
  }
}
node {
  name: "seq2seq/encoder/word_level_encoder/bidirectional_rnn/fw/fw/while/dropout/Shape"
  op: "Const"
  input: "^seq2seq/encoder/word_level_encoder/bidirectional_rnn/fw/fw/while/Identity"
  device: "/device:GPU:0"
  attr {
    key: "_output_shapes"
    value {
      list {
        shape {
          dim {
            size: 2
          }
        }
      }
    }
  }
  attr {
    key: "dtype"
    value {
      type: DT_INT32
    }
  }
  attr {
    key: "value"
    value {
      tensor {
        dtype: DT_INT32
        tensor_shape {
          dim {
            size: 2
          }
        }
        tensor_content: "\002\000\000\000\n\000\000\000"
      }
    }
  }
}
node {
  name: "seq2seq/encoder/word_level_encoder/bidirectional_rnn/fw/fw/while/dropout/random_uniform/min"
  op: "Const"
  input: "^seq2seq/encoder/word_level_encoder/bidirectional_rnn/fw/fw/while/Identity"
  device: "/device:GPU:0"
  attr {
    key: "_output_shapes"
    value {
      list {
        shape {
        }
      }
    }
  }
  attr {
    key: "dtype"
    value {
      type: DT_FLOAT
    }
  }
  attr {
    key: "value"
    value {
      tensor {
        dtype: DT_FLOAT
        tensor_shape {
        }
        float_val: 0.0
      }
    }
  }
}
node {
  name: "seq2seq/encoder/word_level_encoder/bidirectional_rnn/fw/fw/while/dropout/random_uniform/max"
  op: "Const"
  input: "^seq2seq/encoder/word_level_encoder/bidirectional_rnn/fw/fw/while/Identity"
  device: "/device:GPU:0"
  attr {
    key: "_output_shapes"
    value {
      list {
        shape {
        }
      }
    }
  }
  attr {
    key: "dtype"
    value {
      type: DT_FLOAT
    }
  }
  attr {
    key: "value"
    value {
      tensor {
        dtype: DT_FLOAT
        tensor_shape {
        }
        float_val: 1.0
      }
    }
  }
}
node {
  name: "seq2seq/encoder/word_level_encoder/bidirectional_rnn/fw/fw/while/dropout/random_uniform/RandomUniform"
  op: "RandomUniform"
  input: "seq2seq/encoder/word_level_encoder/bidirectional_rnn/fw/fw/while/dropout/Shape"
  device: "/device:GPU:0"
  attr {
    key: "T"
    value {
      type: DT_INT32
    }
  }
  attr {
    key: "_output_shapes"
    value {
      list {
        shape {
          dim {
            size: 2
          }
          dim {
            size: 10
          }
        }
      }
    }
  }
  attr {
    key: "dtype"
    value {
      type: DT_FLOAT
    }
  }
  attr {
    key: "seed"
    value {
      i: 111
    }
  }
  attr {
    key: "seed2"
    value {
      i: 180
    }
  }
}
node {
  name: "seq2seq/encoder/word_level_encoder/bidirectional_rnn/fw/fw/while/dropout/random_uniform/sub"
  op: "Sub"
  input: "seq2seq/encoder/word_level_encoder/bidirectional_rnn/fw/fw/while/dropout/random_uniform/max"
  input: "seq2seq/encoder/word_level_encoder/bidirectional_rnn/fw/fw/while/dropout/random_uniform/min"
  device: "/device:GPU:0"
  attr {
    key: "T"
    value {
      type: DT_FLOAT
    }
  }
  attr {
    key: "_output_shapes"
    value {
      list {
        shape {
        }
      }
    }
  }
}
node {
  name: "seq2seq/encoder/word_level_encoder/bidirectional_rnn/fw/fw/while/dropout/random_uniform/mul"
  op: "Mul"
  input: "seq2seq/encoder/word_level_encoder/bidirectional_rnn/fw/fw/while/dropout/random_uniform/RandomUniform"
  input: "seq2seq/encoder/word_level_encoder/bidirectional_rnn/fw/fw/while/dropout/random_uniform/sub"
  device: "/device:GPU:0"
  attr {
    key: "T"
    value {
      type: DT_FLOAT
    }
  }
  attr {
    key: "_output_shapes"
    value {
      list {
        shape {
          dim {
            size: 2
          }
          dim {
            size: 10
          }
        }
      }
    }
  }
}
node {
  name: "seq2seq/encoder/word_level_encoder/bidirectional_rnn/fw/fw/while/dropout/random_uniform"
  op: "Add"
  input: "seq2seq/encoder/word_level_encoder/bidirectional_rnn/fw/fw/while/dropout/random_uniform/mul"
  input: "seq2seq/encoder/word_level_encoder/bidirectional_rnn/fw/fw/while/dropout/random_uniform/min"
  device: "/device:GPU:0"
  attr {
    key: "T"
    value {
      type: DT_FLOAT
    }
  }
  attr {
    key: "_output_shapes"
    value {
      list {
        shape {
          dim {
            size: 2
          }
          dim {
            size: 10
          }
        }
      }
    }
  }
}
node {
  name: "seq2seq/encoder/word_level_encoder/bidirectional_rnn/fw/fw/while/dropout/sub/x"
  op: "Const"
  input: "^seq2seq/encoder/word_level_encoder/bidirectional_rnn/fw/fw/while/Identity"
  device: "/device:GPU:0"
  attr {
    key: "_output_shapes"
    value {
      list {
        shape {
        }
      }
    }
  }
  attr {
    key: "dtype"
    value {
      type: DT_FLOAT
    }
  }
  attr {
    key: "value"
    value {
      tensor {
        dtype: DT_FLOAT
        tensor_shape {
        }
        float_val: 1.0
      }
    }
  }
}
node {
  name: "seq2seq/encoder/word_level_encoder/bidirectional_rnn/fw/fw/while/dropout/sub"
  op: "Sub"
  input: "seq2seq/encoder/word_level_encoder/bidirectional_rnn/fw/fw/while/dropout/sub/x"
  input: "seq2seq/encoder/word_level_encoder/bidirectional_rnn/fw/fw/while/dropout/rate"
  device: "/device:GPU:0"
  attr {
    key: "T"
    value {
      type: DT_FLOAT
    }
  }
  attr {
    key: "_output_shapes"
    value {
      list {
        shape {
        }
      }
    }
  }
}
node {
  name: "seq2seq/encoder/word_level_encoder/bidirectional_rnn/fw/fw/while/dropout/truediv/x"
  op: "Const"
  input: "^seq2seq/encoder/word_level_encoder/bidirectional_rnn/fw/fw/while/Identity"
  device: "/device:GPU:0"
  attr {
    key: "_output_shapes"
    value {
      list {
        shape {
        }
      }
    }
  }
  attr {
    key: "dtype"
    value {
      type: DT_FLOAT
    }
  }
  attr {
    key: "value"
    value {
      tensor {
        dtype: DT_FLOAT
        tensor_shape {
        }
        float_val: 1.0
      }
    }
  }
}
node {
  name: "seq2seq/encoder/word_level_encoder/bidirectional_rnn/fw/fw/while/dropout/truediv"
  op: "RealDiv"
  input: "seq2seq/encoder/word_level_encoder/bidirectional_rnn/fw/fw/while/dropout/truediv/x"
  input: "seq2seq/encoder/word_level_encoder/bidirectional_rnn/fw/fw/while/dropout/sub"
  device: "/device:GPU:0"
  attr {
    key: "T"
    value {
      type: DT_FLOAT
    }
  }
  attr {
    key: "_output_shapes"
    value {
      list {
        shape {
        }
      }
    }
  }
}
node {
  name: "seq2seq/encoder/word_level_encoder/bidirectional_rnn/fw/fw/while/dropout/GreaterEqual"
  op: "GreaterEqual"
  input: "seq2seq/encoder/word_level_encoder/bidirectional_rnn/fw/fw/while/dropout/random_uniform"
  input: "seq2seq/encoder/word_level_encoder/bidirectional_rnn/fw/fw/while/dropout/rate"
  device: "/device:GPU:0"
  attr {
    key: "T"
    value {
      type: DT_FLOAT
    }
  }
  attr {
    key: "_output_shapes"
    value {
      list {
        shape {
          dim {
            size: 2
          }
          dim {
            size: 10
          }
        }
      }
    }
  }
}
node {
  name: "seq2seq/encoder/word_level_encoder/bidirectional_rnn/fw/fw/while/dropout/mul"
  op: "Mul"
  input: "seq2seq/encoder/word_level_encoder/bidirectional_rnn/fw/fw/while/lstm_cell/mul_2"
  input: "seq2seq/encoder/word_level_encoder/bidirectional_rnn/fw/fw/while/dropout/truediv"
  device: "/device:GPU:0"
  attr {
    key: "T"
    value {
      type: DT_FLOAT
    }
  }
  attr {
    key: "_output_shapes"
    value {
      list {
        shape {
          dim {
            size: 2
          }
          dim {
            size: 10
          }
        }
      }
    }
  }
}
node {
  name: "seq2seq/encoder/word_level_encoder/bidirectional_rnn/fw/fw/while/dropout/Cast"
  op: "Cast"
  input: "seq2seq/encoder/word_level_encoder/bidirectional_rnn/fw/fw/while/dropout/GreaterEqual"
  device: "/device:GPU:0"
  attr {
    key: "DstT"
    value {
      type: DT_FLOAT
    }
  }
  attr {
    key: "SrcT"
    value {
      type: DT_BOOL
    }
  }
  attr {
    key: "Truncate"
    value {
      b: false
    }
  }
  attr {
    key: "_output_shapes"
    value {
      list {
        shape {
          dim {
            size: 2
          }
          dim {
            size: 10
          }
        }
      }
    }
  }
}
node {
  name: "seq2seq/encoder/word_level_encoder/bidirectional_rnn/fw/fw/while/dropout/mul_1"
  op: "Mul"
  input: "seq2seq/encoder/word_level_encoder/bidirectional_rnn/fw/fw/while/dropout/mul"
  input: "seq2seq/encoder/word_level_encoder/bidirectional_rnn/fw/fw/while/dropout/Cast"
  device: "/device:GPU:0"
  attr {
    key: "T"
    value {
      type: DT_FLOAT
    }
  }
  attr {
    key: "_output_shapes"
    value {
      list {
        shape {
          dim {
            size: 2
          }
          dim {
            size: 10
          }
        }
      }
    }
  }
}
node {
  name: "seq2seq/encoder/word_level_encoder/bidirectional_rnn/fw/fw/while/Select"
  op: "Select"
  input: "seq2seq/encoder/word_level_encoder/bidirectional_rnn/fw/fw/while/GreaterEqual"
  input: "seq2seq/encoder/word_level_encoder/bidirectional_rnn/fw/fw/while/Select/Enter"
  input: "seq2seq/encoder/word_level_encoder/bidirectional_rnn/fw/fw/while/dropout/mul_1"
  device: "/device:GPU:0"
  attr {
    key: "T"
    value {
      type: DT_FLOAT
    }
  }
  attr {
    key: "_class"
    value {
      list {
        s: "loc:@seq2seq/encoder/word_level_encoder/bidirectional_rnn/fw/fw/while/dropout/mul_1"
      }
    }
  }
  attr {
    key: "_output_shapes"
    value {
      list {
        shape {
          dim {
            size: 2
          }
          dim {
            size: 10
          }
        }
      }
    }
  }
}
node {
  name: "seq2seq/encoder/word_level_encoder/bidirectional_rnn/fw/fw/while/Select/Enter"
  op: "Enter"
  input: "seq2seq/encoder/word_level_encoder/bidirectional_rnn/fw/fw/zeros"
  device: "/device:GPU:0"
  attr {
    key: "T"
    value {
      type: DT_FLOAT
    }
  }
  attr {
    key: "_class"
    value {
      list {
        s: "loc:@seq2seq/encoder/word_level_encoder/bidirectional_rnn/fw/fw/while/dropout/mul_1"
      }
    }
  }
  attr {
    key: "_output_shapes"
    value {
      list {
        shape {
          dim {
            size: 2
          }
          dim {
            size: 10
          }
        }
      }
    }
  }
  attr {
    key: "frame_name"
    value {
      s: "seq2seq/encoder/word_level_encoder/bidirectional_rnn/fw/fw/while/while_context"
    }
  }
  attr {
    key: "is_constant"
    value {
      b: true
    }
  }
  attr {
    key: "parallel_iterations"
    value {
      i: 32
    }
  }
}
node {
  name: "seq2seq/encoder/word_level_encoder/bidirectional_rnn/fw/fw/while/Select_1"
  op: "Select"
  input: "seq2seq/encoder/word_level_encoder/bidirectional_rnn/fw/fw/while/GreaterEqual"
  input: "seq2seq/encoder/word_level_encoder/bidirectional_rnn/fw/fw/while/Identity_3"
  input: "seq2seq/encoder/word_level_encoder/bidirectional_rnn/fw/fw/while/lstm_cell/add_1"
  device: "/device:GPU:0"
  attr {
    key: "T"
    value {
      type: DT_FLOAT
    }
  }
  attr {
    key: "_class"
    value {
      list {
        s: "loc:@seq2seq/encoder/word_level_encoder/bidirectional_rnn/fw/fw/while/lstm_cell/add_1"
      }
    }
  }
  attr {
    key: "_output_shapes"
    value {
      list {
        shape {
          dim {
            size: 2
          }
          dim {
            size: 10
          }
        }
      }
    }
  }
}
node {
  name: "seq2seq/encoder/word_level_encoder/bidirectional_rnn/fw/fw/while/Select_2"
  op: "Select"
  input: "seq2seq/encoder/word_level_encoder/bidirectional_rnn/fw/fw/while/GreaterEqual"
  input: "seq2seq/encoder/word_level_encoder/bidirectional_rnn/fw/fw/while/Identity_4"
  input: "seq2seq/encoder/word_level_encoder/bidirectional_rnn/fw/fw/while/lstm_cell/mul_2"
  device: "/device:GPU:0"
  attr {
    key: "T"
    value {
      type: DT_FLOAT
    }
  }
  attr {
    key: "_class"
    value {
      list {
        s: "loc:@seq2seq/encoder/word_level_encoder/bidirectional_rnn/fw/fw/while/lstm_cell/mul_2"
      }
    }
  }
  attr {
    key: "_output_shapes"
    value {
      list {
        shape {
          dim {
            size: 2
          }
          dim {
            size: 10
          }
        }
      }
    }
  }
}
node {
  name: "seq2seq/encoder/word_level_encoder/bidirectional_rnn/fw/fw/while/TensorArrayWrite/TensorArrayWriteV3"
  op: "TensorArrayWriteV3"
  input: "seq2seq/encoder/word_level_encoder/bidirectional_rnn/fw/fw/while/TensorArrayWrite/TensorArrayWriteV3/Enter"
  input: "seq2seq/encoder/word_level_encoder/bidirectional_rnn/fw/fw/while/Identity_1"
  input: "seq2seq/encoder/word_level_encoder/bidirectional_rnn/fw/fw/while/Select"
  input: "seq2seq/encoder/word_level_encoder/bidirectional_rnn/fw/fw/while/Identity_2"
  device: "/device:GPU:0"
  attr {
    key: "T"
    value {
      type: DT_FLOAT
    }
  }
  attr {
    key: "_class"
    value {
      list {
        s: "loc:@seq2seq/encoder/word_level_encoder/bidirectional_rnn/fw/fw/while/dropout/mul_1"
      }
    }
  }
  attr {
    key: "_output_shapes"
    value {
      list {
        shape {
        }
      }
    }
  }
}
node {
  name: "seq2seq/encoder/word_level_encoder/bidirectional_rnn/fw/fw/while/TensorArrayWrite/TensorArrayWriteV3/Enter"
  op: "Enter"
  input: "seq2seq/encoder/word_level_encoder/bidirectional_rnn/fw/fw/TensorArray"
  device: "/device:GPU:0"
  attr {
    key: "T"
    value {
      type: DT_RESOURCE
    }
  }
  attr {
    key: "_class"
    value {
      list {
        s: "loc:@seq2seq/encoder/word_level_encoder/bidirectional_rnn/fw/fw/while/dropout/mul_1"
      }
    }
  }
  attr {
    key: "_output_shapes"
    value {
      list {
        shape {
          dim {
            size: 2
          }
        }
      }
    }
  }
  attr {
    key: "frame_name"
    value {
      s: "seq2seq/encoder/word_level_encoder/bidirectional_rnn/fw/fw/while/while_context"
    }
  }
  attr {
    key: "is_constant"
    value {
      b: true
    }
  }
  attr {
    key: "parallel_iterations"
    value {
      i: 32
    }
  }
}
node {
  name: "seq2seq/encoder/word_level_encoder/bidirectional_rnn/fw/fw/while/add_1/y"
  op: "Const"
  input: "^seq2seq/encoder/word_level_encoder/bidirectional_rnn/fw/fw/while/Identity"
  device: "/device:GPU:0"
  attr {
    key: "_output_shapes"
    value {
      list {
        shape {
        }
      }
    }
  }
  attr {
    key: "dtype"
    value {
      type: DT_INT32
    }
  }
  attr {
    key: "value"
    value {
      tensor {
        dtype: DT_INT32
        tensor_shape {
        }
        int_val: 1
      }
    }
  }
}
node {
  name: "seq2seq/encoder/word_level_encoder/bidirectional_rnn/fw/fw/while/add_1"
  op: "AddV2"
  input: "seq2seq/encoder/word_level_encoder/bidirectional_rnn/fw/fw/while/Identity_1"
  input: "seq2seq/encoder/word_level_encoder/bidirectional_rnn/fw/fw/while/add_1/y"
  device: "/device:GPU:0"
  attr {
    key: "T"
    value {
      type: DT_INT32
    }
  }
  attr {
    key: "_output_shapes"
    value {
      list {
        shape {
        }
      }
    }
  }
}
node {
  name: "seq2seq/encoder/word_level_encoder/bidirectional_rnn/fw/fw/while/NextIteration"
  op: "NextIteration"
  input: "seq2seq/encoder/word_level_encoder/bidirectional_rnn/fw/fw/while/add"
  device: "/device:GPU:0"
  attr {
    key: "T"
    value {
      type: DT_INT32
    }
  }
  attr {
    key: "_output_shapes"
    value {
      list {
        shape {
        }
      }
    }
  }
}
node {
  name: "seq2seq/encoder/word_level_encoder/bidirectional_rnn/fw/fw/while/NextIteration_1"
  op: "NextIteration"
  input: "seq2seq/encoder/word_level_encoder/bidirectional_rnn/fw/fw/while/add_1"
  device: "/device:GPU:0"
  attr {
    key: "T"
    value {
      type: DT_INT32
    }
  }
  attr {
    key: "_output_shapes"
    value {
      list {
        shape {
        }
      }
    }
  }
}
node {
  name: "seq2seq/encoder/word_level_encoder/bidirectional_rnn/fw/fw/while/NextIteration_2"
  op: "NextIteration"
  input: "seq2seq/encoder/word_level_encoder/bidirectional_rnn/fw/fw/while/TensorArrayWrite/TensorArrayWriteV3"
  device: "/device:GPU:0"
  attr {
    key: "T"
    value {
      type: DT_FLOAT
    }
  }
  attr {
    key: "_output_shapes"
    value {
      list {
        shape {
        }
      }
    }
  }
}
node {
  name: "seq2seq/encoder/word_level_encoder/bidirectional_rnn/fw/fw/while/NextIteration_3"
  op: "NextIteration"
  input: "seq2seq/encoder/word_level_encoder/bidirectional_rnn/fw/fw/while/Select_1"
  device: "/device:GPU:0"
  attr {
    key: "T"
    value {
      type: DT_FLOAT
    }
  }
  attr {
    key: "_output_shapes"
    value {
      list {
        shape {
          dim {
            size: 2
          }
          dim {
            size: 10
          }
        }
      }
    }
  }
}
node {
  name: "seq2seq/encoder/word_level_encoder/bidirectional_rnn/fw/fw/while/NextIteration_4"
  op: "NextIteration"
  input: "seq2seq/encoder/word_level_encoder/bidirectional_rnn/fw/fw/while/Select_2"
  device: "/device:GPU:0"
  attr {
    key: "T"
    value {
      type: DT_FLOAT
    }
  }
  attr {
    key: "_output_shapes"
    value {
      list {
        shape {
          dim {
            size: 2
          }
          dim {
            size: 10
          }
        }
      }
    }
  }
}
node {
  name: "seq2seq/encoder/word_level_encoder/bidirectional_rnn/fw/fw/while/Exit"
  op: "Exit"
  input: "seq2seq/encoder/word_level_encoder/bidirectional_rnn/fw/fw/while/Switch"
  device: "/device:GPU:0"
  attr {
    key: "T"
    value {
      type: DT_INT32
    }
  }
  attr {
    key: "_output_shapes"
    value {
      list {
        shape {
        }
      }
    }
  }
}
node {
  name: "seq2seq/encoder/word_level_encoder/bidirectional_rnn/fw/fw/while/Exit_1"
  op: "Exit"
  input: "seq2seq/encoder/word_level_encoder/bidirectional_rnn/fw/fw/while/Switch_1"
  device: "/device:GPU:0"
  attr {
    key: "T"
    value {
      type: DT_INT32
    }
  }
  attr {
    key: "_output_shapes"
    value {
      list {
        shape {
        }
      }
    }
  }
}
node {
  name: "seq2seq/encoder/word_level_encoder/bidirectional_rnn/fw/fw/while/Exit_2"
  op: "Exit"
  input: "seq2seq/encoder/word_level_encoder/bidirectional_rnn/fw/fw/while/Switch_2"
  device: "/device:GPU:0"
  attr {
    key: "T"
    value {
      type: DT_FLOAT
    }
  }
  attr {
    key: "_output_shapes"
    value {
      list {
        shape {
        }
      }
    }
  }
}
node {
  name: "seq2seq/encoder/word_level_encoder/bidirectional_rnn/fw/fw/while/Exit_3"
  op: "Exit"
  input: "seq2seq/encoder/word_level_encoder/bidirectional_rnn/fw/fw/while/Switch_3"
  device: "/device:GPU:0"
  attr {
    key: "T"
    value {
      type: DT_FLOAT
    }
  }
  attr {
    key: "_output_shapes"
    value {
      list {
        shape {
          dim {
            size: 2
          }
          dim {
            size: 10
          }
        }
      }
    }
  }
}
node {
  name: "seq2seq/encoder/word_level_encoder/bidirectional_rnn/fw/fw/while/Exit_4"
  op: "Exit"
  input: "seq2seq/encoder/word_level_encoder/bidirectional_rnn/fw/fw/while/Switch_4"
  device: "/device:GPU:0"
  attr {
    key: "T"
    value {
      type: DT_FLOAT
    }
  }
  attr {
    key: "_output_shapes"
    value {
      list {
        shape {
          dim {
            size: 2
          }
          dim {
            size: 10
          }
        }
      }
    }
  }
}
node {
  name: "seq2seq/encoder/word_level_encoder/bidirectional_rnn/fw/fw/TensorArrayStack/TensorArraySizeV3"
  op: "TensorArraySizeV3"
  input: "seq2seq/encoder/word_level_encoder/bidirectional_rnn/fw/fw/TensorArray"
  input: "seq2seq/encoder/word_level_encoder/bidirectional_rnn/fw/fw/while/Exit_2"
  attr {
    key: "_class"
    value {
      list {
        s: "loc:@seq2seq/encoder/word_level_encoder/bidirectional_rnn/fw/fw/TensorArray"
      }
    }
  }
  attr {
    key: "_output_shapes"
    value {
      list {
        shape {
        }
      }
    }
  }
}
node {
  name: "seq2seq/encoder/word_level_encoder/bidirectional_rnn/fw/fw/TensorArrayStack/range/start"
  op: "Const"
  attr {
    key: "_class"
    value {
      list {
        s: "loc:@seq2seq/encoder/word_level_encoder/bidirectional_rnn/fw/fw/TensorArray"
      }
    }
  }
  attr {
    key: "_output_shapes"
    value {
      list {
        shape {
        }
      }
    }
  }
  attr {
    key: "dtype"
    value {
      type: DT_INT32
    }
  }
  attr {
    key: "value"
    value {
      tensor {
        dtype: DT_INT32
        tensor_shape {
        }
        int_val: 0
      }
    }
  }
}
node {
  name: "seq2seq/encoder/word_level_encoder/bidirectional_rnn/fw/fw/TensorArrayStack/range/delta"
  op: "Const"
  attr {
    key: "_class"
    value {
      list {
        s: "loc:@seq2seq/encoder/word_level_encoder/bidirectional_rnn/fw/fw/TensorArray"
      }
    }
  }
  attr {
    key: "_output_shapes"
    value {
      list {
        shape {
        }
      }
    }
  }
  attr {
    key: "dtype"
    value {
      type: DT_INT32
    }
  }
  attr {
    key: "value"
    value {
      tensor {
        dtype: DT_INT32
        tensor_shape {
        }
        int_val: 1
      }
    }
  }
}
node {
  name: "seq2seq/encoder/word_level_encoder/bidirectional_rnn/fw/fw/TensorArrayStack/range"
  op: "Range"
  input: "seq2seq/encoder/word_level_encoder/bidirectional_rnn/fw/fw/TensorArrayStack/range/start"
  input: "seq2seq/encoder/word_level_encoder/bidirectional_rnn/fw/fw/TensorArrayStack/TensorArraySizeV3"
  input: "seq2seq/encoder/word_level_encoder/bidirectional_rnn/fw/fw/TensorArrayStack/range/delta"
  attr {
    key: "Tidx"
    value {
      type: DT_INT32
    }
  }
  attr {
    key: "_class"
    value {
      list {
        s: "loc:@seq2seq/encoder/word_level_encoder/bidirectional_rnn/fw/fw/TensorArray"
      }
    }
  }
  attr {
    key: "_output_shapes"
    value {
      list {
        shape {
          dim {
            size: -1
          }
        }
      }
    }
  }
}
node {
  name: "seq2seq/encoder/word_level_encoder/bidirectional_rnn/fw/fw/TensorArrayStack/TensorArrayGatherV3"
  op: "TensorArrayGatherV3"
  input: "seq2seq/encoder/word_level_encoder/bidirectional_rnn/fw/fw/TensorArray"
  input: "seq2seq/encoder/word_level_encoder/bidirectional_rnn/fw/fw/TensorArrayStack/range"
  input: "seq2seq/encoder/word_level_encoder/bidirectional_rnn/fw/fw/while/Exit_2"
  attr {
    key: "_class"
    value {
      list {
        s: "loc:@seq2seq/encoder/word_level_encoder/bidirectional_rnn/fw/fw/TensorArray"
      }
    }
  }
  attr {
    key: "_output_shapes"
    value {
      list {
        shape {
          dim {
            size: -1
          }
          dim {
            size: 2
          }
          dim {
            size: 10
          }
        }
      }
    }
  }
  attr {
    key: "dtype"
    value {
      type: DT_FLOAT
    }
  }
  attr {
    key: "element_shape"
    value {
      shape {
        dim {
          size: 2
        }
        dim {
          size: 10
        }
      }
    }
  }
}
node {
  name: "seq2seq/encoder/word_level_encoder/bidirectional_rnn/fw/fw/Const_5"
  op: "Const"
  device: "/device:GPU:0"
  attr {
    key: "_output_shapes"
    value {
      list {
        shape {
          dim {
            size: 1
          }
        }
      }
    }
  }
  attr {
    key: "dtype"
    value {
      type: DT_INT32
    }
  }
  attr {
    key: "value"
    value {
      tensor {
        dtype: DT_INT32
        tensor_shape {
          dim {
            size: 1
          }
        }
        int_val: 10
      }
    }
  }
}
node {
  name: "seq2seq/encoder/word_level_encoder/bidirectional_rnn/fw/fw/Rank_1"
  op: "Const"
  device: "/device:GPU:0"
  attr {
    key: "_output_shapes"
    value {
      list {
        shape {
        }
      }
    }
  }
  attr {
    key: "dtype"
    value {
      type: DT_INT32
    }
  }
  attr {
    key: "value"
    value {
      tensor {
        dtype: DT_INT32
        tensor_shape {
        }
        int_val: 3
      }
    }
  }
}
node {
  name: "seq2seq/encoder/word_level_encoder/bidirectional_rnn/fw/fw/range_1/start"
  op: "Const"
  device: "/device:GPU:0"
  attr {
    key: "_output_shapes"
    value {
      list {
        shape {
        }
      }
    }
  }
  attr {
    key: "dtype"
    value {
      type: DT_INT32
    }
  }
  attr {
    key: "value"
    value {
      tensor {
        dtype: DT_INT32
        tensor_shape {
        }
        int_val: 2
      }
    }
  }
}
node {
  name: "seq2seq/encoder/word_level_encoder/bidirectional_rnn/fw/fw/range_1/delta"
  op: "Const"
  device: "/device:GPU:0"
  attr {
    key: "_output_shapes"
    value {
      list {
        shape {
        }
      }
    }
  }
  attr {
    key: "dtype"
    value {
      type: DT_INT32
    }
  }
  attr {
    key: "value"
    value {
      tensor {
        dtype: DT_INT32
        tensor_shape {
        }
        int_val: 1
      }
    }
  }
}
node {
  name: "seq2seq/encoder/word_level_encoder/bidirectional_rnn/fw/fw/range_1"
  op: "Range"
  input: "seq2seq/encoder/word_level_encoder/bidirectional_rnn/fw/fw/range_1/start"
  input: "seq2seq/encoder/word_level_encoder/bidirectional_rnn/fw/fw/Rank_1"
  input: "seq2seq/encoder/word_level_encoder/bidirectional_rnn/fw/fw/range_1/delta"
  device: "/device:GPU:0"
  attr {
    key: "Tidx"
    value {
      type: DT_INT32
    }
  }
  attr {
    key: "_output_shapes"
    value {
      list {
        shape {
          dim {
            size: 1
          }
        }
      }
    }
  }
}
node {
  name: "seq2seq/encoder/word_level_encoder/bidirectional_rnn/fw/fw/concat_2/values_0"
  op: "Const"
  device: "/device:GPU:0"
  attr {
    key: "_output_shapes"
    value {
      list {
        shape {
          dim {
            size: 2
          }
        }
      }
    }
  }
  attr {
    key: "dtype"
    value {
      type: DT_INT32
    }
  }
  attr {
    key: "value"
    value {
      tensor {
        dtype: DT_INT32
        tensor_shape {
          dim {
            size: 2
          }
        }
        tensor_content: "\001\000\000\000\000\000\000\000"
      }
    }
  }
}
node {
  name: "seq2seq/encoder/word_level_encoder/bidirectional_rnn/fw/fw/concat_2/axis"
  op: "Const"
  device: "/device:GPU:0"
  attr {
    key: "_output_shapes"
    value {
      list {
        shape {
        }
      }
    }
  }
  attr {
    key: "dtype"
    value {
      type: DT_INT32
    }
  }
  attr {
    key: "value"
    value {
      tensor {
        dtype: DT_INT32
        tensor_shape {
        }
        int_val: 0
      }
    }
  }
}
node {
  name: "seq2seq/encoder/word_level_encoder/bidirectional_rnn/fw/fw/concat_2"
  op: "ConcatV2"
  input: "seq2seq/encoder/word_level_encoder/bidirectional_rnn/fw/fw/concat_2/values_0"
  input: "seq2seq/encoder/word_level_encoder/bidirectional_rnn/fw/fw/range_1"
  input: "seq2seq/encoder/word_level_encoder/bidirectional_rnn/fw/fw/concat_2/axis"
  device: "/device:GPU:0"
  attr {
    key: "N"
    value {
      i: 2
    }
  }
  attr {
    key: "T"
    value {
      type: DT_INT32
    }
  }
  attr {
    key: "Tidx"
    value {
      type: DT_INT32
    }
  }
  attr {
    key: "_output_shapes"
    value {
      list {
        shape {
          dim {
            size: 3
          }
        }
      }
    }
  }
}
node {
  name: "seq2seq/encoder/word_level_encoder/bidirectional_rnn/fw/fw/transpose_1"
  op: "Transpose"
  input: "seq2seq/encoder/word_level_encoder/bidirectional_rnn/fw/fw/TensorArrayStack/TensorArrayGatherV3"
  input: "seq2seq/encoder/word_level_encoder/bidirectional_rnn/fw/fw/concat_2"
  device: "/device:GPU:0"
  attr {
    key: "T"
    value {
      type: DT_FLOAT
    }
  }
  attr {
    key: "Tperm"
    value {
      type: DT_INT32
    }
  }
  attr {
    key: "_output_shapes"
    value {
      list {
        shape {
          dim {
            size: 2
          }
          dim {
            size: -1
          }
          dim {
            size: 10
          }
        }
      }
    }
  }
}
node {
  name: "seq2seq/encoder/word_level_encoder/bidirectional_rnn/bw/ReverseSequence"
  op: "ReverseSequence"
  input: "seq2seq/embedding/embedding_lookup_1/Identity"
  input: "seq2seq/encoder/word_level_encoder/strided_slice"
  device: "/device:GPU:0"
  attr {
    key: "T"
    value {
      type: DT_FLOAT
    }
  }
  attr {
    key: "Tlen"
    value {
      type: DT_INT32
    }
  }
  attr {
    key: "_output_shapes"
    value {
      list {
        shape {
          dim {
            size: 2
          }
          dim {
            size: -1
          }
          dim {
            size: 10
          }
        }
      }
    }
  }
  attr {
    key: "batch_dim"
    value {
      i: 0
    }
  }
  attr {
    key: "seq_dim"
    value {
      i: 1
    }
  }
}
node {
  name: "seq2seq/encoder/word_level_encoder/bidirectional_rnn/bw/bw/Rank"
  op: "Const"
  device: "/device:GPU:0"
  attr {
    key: "_output_shapes"
    value {
      list {
        shape {
        }
      }
    }
  }
  attr {
    key: "dtype"
    value {
      type: DT_INT32
    }
  }
  attr {
    key: "value"
    value {
      tensor {
        dtype: DT_INT32
        tensor_shape {
        }
        int_val: 3
      }
    }
  }
}
node {
  name: "seq2seq/encoder/word_level_encoder/bidirectional_rnn/bw/bw/range/start"
  op: "Const"
  device: "/device:GPU:0"
  attr {
    key: "_output_shapes"
    value {
      list {
        shape {
        }
      }
    }
  }
  attr {
    key: "dtype"
    value {
      type: DT_INT32
    }
  }
  attr {
    key: "value"
    value {
      tensor {
        dtype: DT_INT32
        tensor_shape {
        }
        int_val: 2
      }
    }
  }
}
node {
  name: "seq2seq/encoder/word_level_encoder/bidirectional_rnn/bw/bw/range/delta"
  op: "Const"
  device: "/device:GPU:0"
  attr {
    key: "_output_shapes"
    value {
      list {
        shape {
        }
      }
    }
  }
  attr {
    key: "dtype"
    value {
      type: DT_INT32
    }
  }
  attr {
    key: "value"
    value {
      tensor {
        dtype: DT_INT32
        tensor_shape {
        }
        int_val: 1
      }
    }
  }
}
node {
  name: "seq2seq/encoder/word_level_encoder/bidirectional_rnn/bw/bw/range"
  op: "Range"
  input: "seq2seq/encoder/word_level_encoder/bidirectional_rnn/bw/bw/range/start"
  input: "seq2seq/encoder/word_level_encoder/bidirectional_rnn/bw/bw/Rank"
  input: "seq2seq/encoder/word_level_encoder/bidirectional_rnn/bw/bw/range/delta"
  device: "/device:GPU:0"
  attr {
    key: "Tidx"
    value {
      type: DT_INT32
    }
  }
  attr {
    key: "_output_shapes"
    value {
      list {
        shape {
          dim {
            size: 1
          }
        }
      }
    }
  }
}
node {
  name: "seq2seq/encoder/word_level_encoder/bidirectional_rnn/bw/bw/concat/values_0"
  op: "Const"
  device: "/device:GPU:0"
  attr {
    key: "_output_shapes"
    value {
      list {
        shape {
          dim {
            size: 2
          }
        }
      }
    }
  }
  attr {
    key: "dtype"
    value {
      type: DT_INT32
    }
  }
  attr {
    key: "value"
    value {
      tensor {
        dtype: DT_INT32
        tensor_shape {
          dim {
            size: 2
          }
        }
        tensor_content: "\001\000\000\000\000\000\000\000"
      }
    }
  }
}
node {
  name: "seq2seq/encoder/word_level_encoder/bidirectional_rnn/bw/bw/concat/axis"
  op: "Const"
  device: "/device:GPU:0"
  attr {
    key: "_output_shapes"
    value {
      list {
        shape {
        }
      }
    }
  }
  attr {
    key: "dtype"
    value {
      type: DT_INT32
    }
  }
  attr {
    key: "value"
    value {
      tensor {
        dtype: DT_INT32
        tensor_shape {
        }
        int_val: 0
      }
    }
  }
}
node {
  name: "seq2seq/encoder/word_level_encoder/bidirectional_rnn/bw/bw/concat"
  op: "ConcatV2"
  input: "seq2seq/encoder/word_level_encoder/bidirectional_rnn/bw/bw/concat/values_0"
  input: "seq2seq/encoder/word_level_encoder/bidirectional_rnn/bw/bw/range"
  input: "seq2seq/encoder/word_level_encoder/bidirectional_rnn/bw/bw/concat/axis"
  device: "/device:GPU:0"
  attr {
    key: "N"
    value {
      i: 2
    }
  }
  attr {
    key: "T"
    value {
      type: DT_INT32
    }
  }
  attr {
    key: "Tidx"
    value {
      type: DT_INT32
    }
  }
  attr {
    key: "_output_shapes"
    value {
      list {
        shape {
          dim {
            size: 3
          }
        }
      }
    }
  }
}
node {
  name: "seq2seq/encoder/word_level_encoder/bidirectional_rnn/bw/bw/transpose"
  op: "Transpose"
  input: "seq2seq/encoder/word_level_encoder/bidirectional_rnn/bw/ReverseSequence"
  input: "seq2seq/encoder/word_level_encoder/bidirectional_rnn/bw/bw/concat"
  device: "/device:GPU:0"
  attr {
    key: "T"
    value {
      type: DT_FLOAT
    }
  }
  attr {
    key: "Tperm"
    value {
      type: DT_INT32
    }
  }
  attr {
    key: "_output_shapes"
    value {
      list {
        shape {
          dim {
            size: -1
          }
          dim {
            size: 2
          }
          dim {
            size: 10
          }
        }
      }
    }
  }
}
node {
  name: "seq2seq/encoder/word_level_encoder/bidirectional_rnn/bw/bw/sequence_length"
  op: "Identity"
  input: "seq2seq/encoder/word_level_encoder/strided_slice"
  device: "/device:GPU:0"
  attr {
    key: "T"
    value {
      type: DT_INT32
    }
  }
  attr {
    key: "_output_shapes"
    value {
      list {
        shape {
          dim {
            size: 2
          }
        }
      }
    }
  }
}
node {
  name: "seq2seq/encoder/word_level_encoder/bidirectional_rnn/bw/bw/DropoutWrapperZeroState/LSTMCellZeroState/Const"
  op: "Const"
  device: "/device:GPU:0"
  attr {
    key: "_output_shapes"
    value {
      list {
        shape {
          dim {
            size: 1
          }
        }
      }
    }
  }
  attr {
    key: "dtype"
    value {
      type: DT_INT32
    }
  }
  attr {
    key: "value"
    value {
      tensor {
        dtype: DT_INT32
        tensor_shape {
          dim {
            size: 1
          }
        }
        int_val: 2
      }
    }
  }
}
node {
  name: "seq2seq/encoder/word_level_encoder/bidirectional_rnn/bw/bw/DropoutWrapperZeroState/LSTMCellZeroState/Const_1"
  op: "Const"
  device: "/device:GPU:0"
  attr {
    key: "_output_shapes"
    value {
      list {
        shape {
          dim {
            size: 1
          }
        }
      }
    }
  }
  attr {
    key: "dtype"
    value {
      type: DT_INT32
    }
  }
  attr {
    key: "value"
    value {
      tensor {
        dtype: DT_INT32
        tensor_shape {
          dim {
            size: 1
          }
        }
        int_val: 10
      }
    }
  }
}
node {
  name: "seq2seq/encoder/word_level_encoder/bidirectional_rnn/bw/bw/DropoutWrapperZeroState/LSTMCellZeroState/concat/axis"
  op: "Const"
  device: "/device:GPU:0"
  attr {
    key: "_output_shapes"
    value {
      list {
        shape {
        }
      }
    }
  }
  attr {
    key: "dtype"
    value {
      type: DT_INT32
    }
  }
  attr {
    key: "value"
    value {
      tensor {
        dtype: DT_INT32
        tensor_shape {
        }
        int_val: 0
      }
    }
  }
}
node {
  name: "seq2seq/encoder/word_level_encoder/bidirectional_rnn/bw/bw/DropoutWrapperZeroState/LSTMCellZeroState/concat"
  op: "ConcatV2"
  input: "seq2seq/encoder/word_level_encoder/bidirectional_rnn/bw/bw/DropoutWrapperZeroState/LSTMCellZeroState/Const"
  input: "seq2seq/encoder/word_level_encoder/bidirectional_rnn/bw/bw/DropoutWrapperZeroState/LSTMCellZeroState/Const_1"
  input: "seq2seq/encoder/word_level_encoder/bidirectional_rnn/bw/bw/DropoutWrapperZeroState/LSTMCellZeroState/concat/axis"
  device: "/device:GPU:0"
  attr {
    key: "N"
    value {
      i: 2
    }
  }
  attr {
    key: "T"
    value {
      type: DT_INT32
    }
  }
  attr {
    key: "Tidx"
    value {
      type: DT_INT32
    }
  }
  attr {
    key: "_output_shapes"
    value {
      list {
        shape {
          dim {
            size: 2
          }
        }
      }
    }
  }
}
node {
  name: "seq2seq/encoder/word_level_encoder/bidirectional_rnn/bw/bw/DropoutWrapperZeroState/LSTMCellZeroState/zeros/Const"
  op: "Const"
  device: "/device:GPU:0"
  attr {
    key: "_output_shapes"
    value {
      list {
        shape {
        }
      }
    }
  }
  attr {
    key: "dtype"
    value {
      type: DT_FLOAT
    }
  }
  attr {
    key: "value"
    value {
      tensor {
        dtype: DT_FLOAT
        tensor_shape {
        }
        float_val: 0.0
      }
    }
  }
}
node {
  name: "seq2seq/encoder/word_level_encoder/bidirectional_rnn/bw/bw/DropoutWrapperZeroState/LSTMCellZeroState/zeros"
  op: "Fill"
  input: "seq2seq/encoder/word_level_encoder/bidirectional_rnn/bw/bw/DropoutWrapperZeroState/LSTMCellZeroState/concat"
  input: "seq2seq/encoder/word_level_encoder/bidirectional_rnn/bw/bw/DropoutWrapperZeroState/LSTMCellZeroState/zeros/Const"
  device: "/device:GPU:0"
  attr {
    key: "T"
    value {
      type: DT_FLOAT
    }
  }
  attr {
    key: "_output_shapes"
    value {
      list {
        shape {
          dim {
            size: 2
          }
          dim {
            size: 10
          }
        }
      }
    }
  }
  attr {
    key: "index_type"
    value {
      type: DT_INT32
    }
  }
}
node {
  name: "seq2seq/encoder/word_level_encoder/bidirectional_rnn/bw/bw/DropoutWrapperZeroState/LSTMCellZeroState/Const_2"
  op: "Const"
  device: "/device:GPU:0"
  attr {
    key: "_output_shapes"
    value {
      list {
        shape {
          dim {
            size: 1
          }
        }
      }
    }
  }
  attr {
    key: "dtype"
    value {
      type: DT_INT32
    }
  }
  attr {
    key: "value"
    value {
      tensor {
        dtype: DT_INT32
        tensor_shape {
          dim {
            size: 1
          }
        }
        int_val: 2
      }
    }
  }
}
node {
  name: "seq2seq/encoder/word_level_encoder/bidirectional_rnn/bw/bw/DropoutWrapperZeroState/LSTMCellZeroState/Const_3"
  op: "Const"
  device: "/device:GPU:0"
  attr {
    key: "_output_shapes"
    value {
      list {
        shape {
          dim {
            size: 1
          }
        }
      }
    }
  }
  attr {
    key: "dtype"
    value {
      type: DT_INT32
    }
  }
  attr {
    key: "value"
    value {
      tensor {
        dtype: DT_INT32
        tensor_shape {
          dim {
            size: 1
          }
        }
        int_val: 10
      }
    }
  }
}
node {
  name: "seq2seq/encoder/word_level_encoder/bidirectional_rnn/bw/bw/DropoutWrapperZeroState/LSTMCellZeroState/Const_4"
  op: "Const"
  device: "/device:GPU:0"
  attr {
    key: "_output_shapes"
    value {
      list {
        shape {
          dim {
            size: 1
          }
        }
      }
    }
  }
  attr {
    key: "dtype"
    value {
      type: DT_INT32
    }
  }
  attr {
    key: "value"
    value {
      tensor {
        dtype: DT_INT32
        tensor_shape {
          dim {
            size: 1
          }
        }
        int_val: 2
      }
    }
  }
}
node {
  name: "seq2seq/encoder/word_level_encoder/bidirectional_rnn/bw/bw/DropoutWrapperZeroState/LSTMCellZeroState/Const_5"
  op: "Const"
  device: "/device:GPU:0"
  attr {
    key: "_output_shapes"
    value {
      list {
        shape {
          dim {
            size: 1
          }
        }
      }
    }
  }
  attr {
    key: "dtype"
    value {
      type: DT_INT32
    }
  }
  attr {
    key: "value"
    value {
      tensor {
        dtype: DT_INT32
        tensor_shape {
          dim {
            size: 1
          }
        }
        int_val: 10
      }
    }
  }
}
node {
  name: "seq2seq/encoder/word_level_encoder/bidirectional_rnn/bw/bw/DropoutWrapperZeroState/LSTMCellZeroState/concat_1/axis"
  op: "Const"
  device: "/device:GPU:0"
  attr {
    key: "_output_shapes"
    value {
      list {
        shape {
        }
      }
    }
  }
  attr {
    key: "dtype"
    value {
      type: DT_INT32
    }
  }
  attr {
    key: "value"
    value {
      tensor {
        dtype: DT_INT32
        tensor_shape {
        }
        int_val: 0
      }
    }
  }
}
node {
  name: "seq2seq/encoder/word_level_encoder/bidirectional_rnn/bw/bw/DropoutWrapperZeroState/LSTMCellZeroState/concat_1"
  op: "ConcatV2"
  input: "seq2seq/encoder/word_level_encoder/bidirectional_rnn/bw/bw/DropoutWrapperZeroState/LSTMCellZeroState/Const_4"
  input: "seq2seq/encoder/word_level_encoder/bidirectional_rnn/bw/bw/DropoutWrapperZeroState/LSTMCellZeroState/Const_5"
  input: "seq2seq/encoder/word_level_encoder/bidirectional_rnn/bw/bw/DropoutWrapperZeroState/LSTMCellZeroState/concat_1/axis"
  device: "/device:GPU:0"
  attr {
    key: "N"
    value {
      i: 2
    }
  }
  attr {
    key: "T"
    value {
      type: DT_INT32
    }
  }
  attr {
    key: "Tidx"
    value {
      type: DT_INT32
    }
  }
  attr {
    key: "_output_shapes"
    value {
      list {
        shape {
          dim {
            size: 2
          }
        }
      }
    }
  }
}
node {
  name: "seq2seq/encoder/word_level_encoder/bidirectional_rnn/bw/bw/DropoutWrapperZeroState/LSTMCellZeroState/zeros_1/Const"
  op: "Const"
  device: "/device:GPU:0"
  attr {
    key: "_output_shapes"
    value {
      list {
        shape {
        }
      }
    }
  }
  attr {
    key: "dtype"
    value {
      type: DT_FLOAT
    }
  }
  attr {
    key: "value"
    value {
      tensor {
        dtype: DT_FLOAT
        tensor_shape {
        }
        float_val: 0.0
      }
    }
  }
}
node {
  name: "seq2seq/encoder/word_level_encoder/bidirectional_rnn/bw/bw/DropoutWrapperZeroState/LSTMCellZeroState/zeros_1"
  op: "Fill"
  input: "seq2seq/encoder/word_level_encoder/bidirectional_rnn/bw/bw/DropoutWrapperZeroState/LSTMCellZeroState/concat_1"
  input: "seq2seq/encoder/word_level_encoder/bidirectional_rnn/bw/bw/DropoutWrapperZeroState/LSTMCellZeroState/zeros_1/Const"
  device: "/device:GPU:0"
  attr {
    key: "T"
    value {
      type: DT_FLOAT
    }
  }
  attr {
    key: "_output_shapes"
    value {
      list {
        shape {
          dim {
            size: 2
          }
          dim {
            size: 10
          }
        }
      }
    }
  }
  attr {
    key: "index_type"
    value {
      type: DT_INT32
    }
  }
}
node {
  name: "seq2seq/encoder/word_level_encoder/bidirectional_rnn/bw/bw/DropoutWrapperZeroState/LSTMCellZeroState/Const_6"
  op: "Const"
  device: "/device:GPU:0"
  attr {
    key: "_output_shapes"
    value {
      list {
        shape {
          dim {
            size: 1
          }
        }
      }
    }
  }
  attr {
    key: "dtype"
    value {
      type: DT_INT32
    }
  }
  attr {
    key: "value"
    value {
      tensor {
        dtype: DT_INT32
        tensor_shape {
          dim {
            size: 1
          }
        }
        int_val: 2
      }
    }
  }
}
node {
  name: "seq2seq/encoder/word_level_encoder/bidirectional_rnn/bw/bw/DropoutWrapperZeroState/LSTMCellZeroState/Const_7"
  op: "Const"
  device: "/device:GPU:0"
  attr {
    key: "_output_shapes"
    value {
      list {
        shape {
          dim {
            size: 1
          }
        }
      }
    }
  }
  attr {
    key: "dtype"
    value {
      type: DT_INT32
    }
  }
  attr {
    key: "value"
    value {
      tensor {
        dtype: DT_INT32
        tensor_shape {
          dim {
            size: 1
          }
        }
        int_val: 10
      }
    }
  }
}
node {
  name: "seq2seq/encoder/word_level_encoder/bidirectional_rnn/bw/bw/Shape"
  op: "Const"
  device: "/device:GPU:0"
  attr {
    key: "_output_shapes"
    value {
      list {
        shape {
          dim {
            size: 1
          }
        }
      }
    }
  }
  attr {
    key: "dtype"
    value {
      type: DT_INT32
    }
  }
  attr {
    key: "value"
    value {
      tensor {
        dtype: DT_INT32
        tensor_shape {
          dim {
            size: 1
          }
        }
        int_val: 2
      }
    }
  }
}
node {
  name: "seq2seq/encoder/word_level_encoder/bidirectional_rnn/bw/bw/stack"
  op: "Const"
  device: "/device:GPU:0"
  attr {
    key: "_output_shapes"
    value {
      list {
        shape {
          dim {
            size: 1
          }
        }
      }
    }
  }
  attr {
    key: "dtype"
    value {
      type: DT_INT32
    }
  }
  attr {
    key: "value"
    value {
      tensor {
        dtype: DT_INT32
        tensor_shape {
          dim {
            size: 1
          }
        }
…
  name: "report_uninitialized_variables/IsVariableInitialized_38"
  op: "IsVariableInitialized"
  input: "seq2seq/encoder/word_level_encoder/bidirectional_rnn/fw/lstm_cell/bias/Adagrad"
  device: "/device:GPU:0"
  attr {
    key: "_class"
    value {
      list {
        s: "loc:@seq2seq/encoder/word_level_encoder/bidirectional_rnn/fw/lstm_cell/bias"
      }
    }
  }
  attr {
    key: "_output_shapes"
    value {
      list {
        shape {
        }
      }
    }
  }
  attr {
    key: "dtype"
    value {
      type: DT_FLOAT
    }
  }
}
node {
  name: "report_uninitialized_variables/IsVariableInitialized_39"
  op: "IsVariableInitialized"
  input: "seq2seq/encoder/word_level_encoder/bidirectional_rnn/bw/lstm_cell/kernel/Adagrad"
  device: "/device:GPU:0"
  attr {
    key: "_class"
    value {
      list {
        s: "loc:@seq2seq/encoder/word_level_encoder/bidirectional_rnn/bw/lstm_cell/kernel"
      }
    }
  }
  attr {
    key: "_output_shapes"
    value {
      list {
        shape {
        }
      }
    }
  }
  attr {
    key: "dtype"
    value {
      type: DT_FLOAT
    }
  }
}
node {
  name: "report_uninitialized_variables/IsVariableInitialized_40"
  op: "IsVariableInitialized"
  input: "seq2seq/encoder/word_level_encoder/bidirectional_rnn/bw/lstm_cell/bias/Adagrad"
  device: "/device:GPU:0"
  attr {
    key: "_class"
    value {
      list {
        s: "loc:@seq2seq/encoder/word_level_encoder/bidirectional_rnn/bw/lstm_cell/bias"
      }
    }
  }
  attr {
    key: "_output_shapes"
    value {
      list {
        shape {
        }
      }
    }
  }
  attr {
    key: "dtype"
    value {
      type: DT_FLOAT
    }
  }
}
node {
  name: "report_uninitialized_variables/IsVariableInitialized_41"
  op: "IsVariableInitialized"
  input: "seq2seq/encoder/word_level_encoder/reduce_final_st/w_reduce_h/Adagrad"
  device: "/device:GPU:0"
  attr {
    key: "_class"
    value {
      list {
        s: "loc:@seq2seq/encoder/word_level_encoder/reduce_final_st/w_reduce_h"
      }
    }
  }
  attr {
    key: "_output_shapes"
    value {
      list {
        shape {
        }
      }
    }
  }
  attr {
    key: "dtype"
    value {
      type: DT_FLOAT
    }
  }
}
node {
  name: "report_uninitialized_variables/IsVariableInitialized_42"
  op: "IsVariableInitialized"
  input: "seq2seq/encoder/word_level_encoder/reduce_final_st/bias_reduce_h/Adagrad"
  device: "/device:GPU:0"
  attr {
    key: "_class"
    value {
      list {
        s: "loc:@seq2seq/encoder/word_level_encoder/reduce_final_st/bias_reduce_h"
      }
    }
  }
  attr {
    key: "_output_shapes"
    value {
      list {
        shape {
        }
      }
    }
  }
  attr {
    key: "dtype"
    value {
      type: DT_FLOAT
    }
  }
}
node {
  name: "report_uninitialized_variables/IsVariableInitialized_43"
  op: "IsVariableInitialized"
  input: "seq2seq/encoder/section_level_encoder/bidirectional_rnn/fw/lstm_cell/kernel/Adagrad"
  device: "/device:GPU:0"
  attr {
    key: "_class"
    value {
      list {
        s: "loc:@seq2seq/encoder/section_level_encoder/bidirectional_rnn/fw/lstm_cell/kernel"
      }
    }
  }
  attr {
    key: "_output_shapes"
    value {
      list {
        shape {
        }
      }
    }
  }
  attr {
    key: "dtype"
    value {
      type: DT_FLOAT
    }
  }
}
node {
  name: "report_uninitialized_variables/IsVariableInitialized_44"
  op: "IsVariableInitialized"
  input: "seq2seq/encoder/section_level_encoder/bidirectional_rnn/fw/lstm_cell/bias/Adagrad"
  device: "/device:GPU:0"
  attr {
    key: "_class"
    value {
      list {
        s: "loc:@seq2seq/encoder/section_level_encoder/bidirectional_rnn/fw/lstm_cell/bias"
      }
    }
  }
  attr {
    key: "_output_shapes"
    value {
      list {
        shape {
        }
      }
    }
  }
  attr {
    key: "dtype"
    value {
      type: DT_FLOAT
    }
  }
}
node {
  name: "report_uninitialized_variables/IsVariableInitialized_45"
  op: "IsVariableInitialized"
  input: "seq2seq/encoder/section_level_encoder/bidirectional_rnn/bw/lstm_cell/kernel/Adagrad"
  device: "/device:GPU:0"
  attr {
    key: "_class"
    value {
      list {
        s: "loc:@seq2seq/encoder/section_level_encoder/bidirectional_rnn/bw/lstm_cell/kernel"
      }
    }
  }
  attr {
    key: "_output_shapes"
    value {
      list {
        shape {
        }
      }
    }
  }
  attr {
    key: "dtype"
    value {
      type: DT_FLOAT
    }
  }
}
node {
  name: "report_uninitialized_variables/IsVariableInitialized_46"
  op: "IsVariableInitialized"
  input: "seq2seq/encoder/section_level_encoder/bidirectional_rnn/bw/lstm_cell/bias/Adagrad"
  device: "/device:GPU:0"
  attr {
    key: "_class"
    value {
      list {
        s: "loc:@seq2seq/encoder/section_level_encoder/bidirectional_rnn/bw/lstm_cell/bias"
      }
    }
  }
  attr {
    key: "_output_shapes"
    value {
      list {
        shape {
        }
      }
    }
  }
  attr {
    key: "dtype"
    value {
      type: DT_FLOAT
    }
  }
}
node {
  name: "report_uninitialized_variables/IsVariableInitialized_47"
  op: "IsVariableInitialized"
  input: "seq2seq/encoder/section_level_encoder/reduce_final_st/w_reduce_c/Adagrad"
  device: "/device:GPU:0"
  attr {
    key: "_class"
    value {
      list {
        s: "loc:@seq2seq/encoder/section_level_encoder/reduce_final_st/w_reduce_c"
      }
    }
  }
  attr {
    key: "_output_shapes"
    value {
      list {
        shape {
        }
      }
    }
  }
  attr {
    key: "dtype"
    value {
      type: DT_FLOAT
    }
  }
}
node {
  name: "report_uninitialized_variables/IsVariableInitialized_48"
  op: "IsVariableInitialized"
  input: "seq2seq/encoder/section_level_encoder/reduce_final_st/w_reduce_h/Adagrad"
  device: "/device:GPU:0"
  attr {
    key: "_class"
    value {
      list {
        s: "loc:@seq2seq/encoder/section_level_encoder/reduce_final_st/w_reduce_h"
      }
    }
  }
  attr {
    key: "_output_shapes"
    value {
      list {
        shape {
        }
      }
    }
  }
  attr {
    key: "dtype"
    value {
      type: DT_FLOAT
    }
  }
}
node {
  name: "report_uninitialized_variables/IsVariableInitialized_49"
  op: "IsVariableInitialized"
  input: "seq2seq/encoder/section_level_encoder/reduce_final_st/bias_reduce_c/Adagrad"
  device: "/device:GPU:0"
  attr {
    key: "_class"
    value {
      list {
        s: "loc:@seq2seq/encoder/section_level_encoder/reduce_final_st/bias_reduce_c"
      }
    }
  }
  attr {
    key: "_output_shapes"
    value {
      list {
        shape {
        }
      }
    }
  }
  attr {
    key: "dtype"
    value {
      type: DT_FLOAT
    }
  }
}
node {
  name: "report_uninitialized_variables/IsVariableInitialized_50"
  op: "IsVariableInitialized"
  input: "seq2seq/encoder/section_level_encoder/reduce_final_st/bias_reduce_h/Adagrad"
  device: "/device:GPU:0"
  attr {
    key: "_class"
    value {
      list {
        s: "loc:@seq2seq/encoder/section_level_encoder/reduce_final_st/bias_reduce_h"
      }
    }
  }
  attr {
    key: "_output_shapes"
    value {
      list {
        shape {
        }
      }
    }
  }
  attr {
    key: "dtype"
    value {
      type: DT_FLOAT
    }
  }
}
node {
  name: "report_uninitialized_variables/IsVariableInitialized_51"
  op: "IsVariableInitialized"
  input: "seq2seq/decoder/attention_decoder/W_h/Adagrad"
  device: "/device:GPU:0"
  attr {
    key: "_class"
    value {
      list {
        s: "loc:@seq2seq/decoder/attention_decoder/W_h"
      }
    }
  }
  attr {
    key: "_output_shapes"
    value {
      list {
        shape {
        }
      }
    }
  }
  attr {
    key: "dtype"
    value {
      type: DT_FLOAT
    }
  }
}
node {
  name: "report_uninitialized_variables/IsVariableInitialized_52"
  op: "IsVariableInitialized"
  input: "seq2seq/decoder/attention_decoder/W_h_s/Adagrad"
  device: "/device:GPU:0"
  attr {
    key: "_class"
    value {
      list {
        s: "loc:@seq2seq/decoder/attention_decoder/W_h_s"
      }
    }
  }
  attr {
    key: "_output_shapes"
    value {
      list {
        shape {
        }
      }
    }
  }
  attr {
    key: "dtype"
    value {
      type: DT_FLOAT
    }
  }
}
node {
  name: "report_uninitialized_variables/IsVariableInitialized_53"
  op: "IsVariableInitialized"
  input: "seq2seq/decoder/attention_decoder/v_sec/Adagrad"
  device: "/device:GPU:0"
  attr {
    key: "_class"
    value {
      list {
        s: "loc:@seq2seq/decoder/attention_decoder/v_sec"
      }
    }
  }
  attr {
    key: "_output_shapes"
    value {
      list {
        shape {
        }
      }
    }
  }
  attr {
    key: "dtype"
    value {
      type: DT_FLOAT
    }
  }
}
node {
  name: "report_uninitialized_variables/IsVariableInitialized_54"
  op: "IsVariableInitialized"
  input: "seq2seq/decoder/attention_decoder/v/Adagrad"
  device: "/device:GPU:0"
  attr {
    key: "_class"
    value {
      list {
        s: "loc:@seq2seq/decoder/attention_decoder/v"
      }
    }
  }
  attr {
    key: "_output_shapes"
    value {
      list {
        shape {
        }
      }
    }
  }
  attr {
    key: "dtype"
    value {
      type: DT_FLOAT
    }
  }
}
node {
  name: "report_uninitialized_variables/IsVariableInitialized_55"
  op: "IsVariableInitialized"
  input: "seq2seq/decoder/attention_decoder/Linear/Matrix/Adagrad"
  device: "/device:GPU:0"
  attr {
    key: "_class"
    value {
      list {
        s: "loc:@seq2seq/decoder/attention_decoder/Linear/Matrix"
      }
    }
  }
  attr {
    key: "_output_shapes"
    value {
      list {
        shape {
        }
      }
    }
  }
  attr {
    key: "dtype"
    value {
      type: DT_FLOAT
    }
  }
}
node {
  name: "report_uninitialized_variables/IsVariableInitialized_56"
  op: "IsVariableInitialized"
  input: "seq2seq/decoder/attention_decoder/Linear/Bias/Adagrad"
  device: "/device:GPU:0"
  attr {
    key: "_class"
    value {
      list {
        s: "loc:@seq2seq/decoder/attention_decoder/Linear/Bias"
      }
    }
  }
  attr {
    key: "_output_shapes"
    value {
      list {
        shape {
        }
      }
    }
  }
  attr {
    key: "dtype"
    value {
      type: DT_FLOAT
    }
  }
}
node {
  name: "report_uninitialized_variables/IsVariableInitialized_57"
  op: "IsVariableInitialized"
  input: "seq2seq/decoder/attention_decoder/lstm_cell/kernel/Adagrad"
  device: "/device:GPU:0"
  attr {
    key: "_class"
    value {
      list {
        s: "loc:@seq2seq/decoder/attention_decoder/lstm_cell/kernel"
      }
    }
  }
  attr {
    key: "_output_shapes"
    value {
      list {
        shape {
        }
      }
    }
  }
  attr {
    key: "dtype"
    value {
      type: DT_FLOAT
    }
  }
}
node {
  name: "report_uninitialized_variables/IsVariableInitialized_58"
  op: "IsVariableInitialized"
  input: "seq2seq/decoder/attention_decoder/lstm_cell/bias/Adagrad"
  device: "/device:GPU:0"
  attr {
    key: "_class"
    value {
      list {
        s: "loc:@seq2seq/decoder/attention_decoder/lstm_cell/bias"
      }
    }
  }
  attr {
    key: "_output_shapes"
    value {
      list {
        shape {
        }
      }
    }
  }
  attr {
    key: "dtype"
    value {
      type: DT_FLOAT
    }
  }
}
node {
  name: "report_uninitialized_variables/IsVariableInitialized_59"
  op: "IsVariableInitialized"
  input: "seq2seq/decoder/attention_decoder/Attention/Linear/Matrix/Adagrad"
  device: "/device:GPU:0"
  attr {
    key: "_class"
    value {
      list {
        s: "loc:@seq2seq/decoder/attention_decoder/Attention/Linear/Matrix"
      }
    }
  }
  attr {
    key: "_output_shapes"
    value {
      list {
        shape {
        }
      }
    }
  }
  attr {
    key: "dtype"
    value {
      type: DT_FLOAT
    }
  }
}
node {
  name: "report_uninitialized_variables/IsVariableInitialized_60"
  op: "IsVariableInitialized"
  input: "seq2seq/decoder/attention_decoder/Attention/Linear/Bias/Adagrad"
  device: "/device:GPU:0"
  attr {
    key: "_class"
    value {
      list {
        s: "loc:@seq2seq/decoder/attention_decoder/Attention/Linear/Bias"
      }
    }
  }
  attr {
    key: "_output_shapes"
    value {
      list {
        shape {
        }
      }
    }
  }
  attr {
    key: "dtype"
    value {
      type: DT_FLOAT
    }
  }
}
node {
  name: "report_uninitialized_variables/IsVariableInitialized_61"
  op: "IsVariableInitialized"
  input: "seq2seq/decoder/attention_decoder/Attention/attention_sections/Linear--Section-Features/Matrix/Adagrad"
  device: "/device:GPU:0"
  attr {
    key: "_class"
    value {
      list {
        s: "loc:@seq2seq/decoder/attention_decoder/Attention/attention_sections/Linear--Section-Features/Matrix"
      }
    }
  }
  attr {
    key: "_output_shapes"
    value {
      list {
        shape {
        }
      }
    }
  }
  attr {
    key: "dtype"
    value {
      type: DT_FLOAT
    }
  }
}
node {
  name: "report_uninitialized_variables/IsVariableInitialized_62"
  op: "IsVariableInitialized"
  input: "seq2seq/decoder/attention_decoder/Attention/attention_sections/Linear--Section-Features/Bias/Adagrad"
  device: "/device:GPU:0"
  attr {
    key: "_class"
    value {
      list {
        s: "loc:@seq2seq/decoder/attention_decoder/Attention/attention_sections/Linear--Section-Features/Bias"
      }
    }
  }
  attr {
    key: "_output_shapes"
    value {
      list {
        shape {
        }
      }
    }
  }
  attr {
    key: "dtype"
    value {
      type: DT_FLOAT
    }
  }
}
node {
  name: "report_uninitialized_variables/IsVariableInitialized_63"
  op: "IsVariableInitialized"
  input: "seq2seq/decoder/attention_decoder/calculate_pgen/Linear/Matrix/Adagrad"
  device: "/device:GPU:0"
  attr {
    key: "_class"
    value {
      list {
        s: "loc:@seq2seq/decoder/attention_decoder/calculate_pgen/Linear/Matrix"
      }
    }
  }
  attr {
    key: "_output_shapes"
    value {
      list {
        shape {
        }
      }
    }
  }
  attr {
    key: "dtype"
    value {
      type: DT_FLOAT
    }
  }
}
node {
  name: "report_uninitialized_variables/IsVariableInitialized_64"
  op: "IsVariableInitialized"
  input: "seq2seq/decoder/attention_decoder/calculate_pgen/Linear/Bias/Adagrad"
  device: "/device:GPU:0"
  attr {
    key: "_class"
    value {
      list {
        s: "loc:@seq2seq/decoder/attention_decoder/calculate_pgen/Linear/Bias"
      }
    }
  }
  attr {
    key: "_output_shapes"
    value {
      list {
        shape {
        }
      }
    }
  }
  attr {
    key: "dtype"
    value {
      type: DT_FLOAT
    }
  }
}
node {
  name: "report_uninitialized_variables/IsVariableInitialized_65"
  op: "IsVariableInitialized"
  input: "seq2seq/decoder/attention_decoder/AttnOutputProjection/Linear/Matrix/Adagrad"
  device: "/device:GPU:0"
  attr {
    key: "_class"
    value {
      list {
        s: "loc:@seq2seq/decoder/attention_decoder/AttnOutputProjection/Linear/Matrix"
      }
    }
  }
  attr {
    key: "_output_shapes"
    value {
      list {
        shape {
        }
      }
    }
  }
  attr {
    key: "dtype"
    value {
      type: DT_FLOAT
    }
  }
}
node {
  name: "report_uninitialized_variables/IsVariableInitialized_66"
  op: "IsVariableInitialized"
  input: "seq2seq/decoder/attention_decoder/AttnOutputProjection/Linear/Bias/Adagrad"
  device: "/device:GPU:0"
  attr {
    key: "_class"
    value {
      list {
        s: "loc:@seq2seq/decoder/attention_decoder/AttnOutputProjection/Linear/Bias"
      }
    }
  }
  attr {
    key: "_output_shapes"
    value {
      list {
        shape {
        }
      }
    }
  }
  attr {
    key: "dtype"
    value {
      type: DT_FLOAT
    }
  }
}
node {
  name: "report_uninitialized_variables/IsVariableInitialized_67"
  op: "IsVariableInitialized"
  input: "seq2seq/output_projection/w/Adagrad"
  device: "/device:GPU:0"
  attr {
    key: "_class"
    value {
      list {
        s: "loc:@seq2seq/output_projection/w"
      }
    }
  }
  attr {
    key: "_output_shapes"
    value {
      list {
        shape {
        }
      }
    }
  }
  attr {
    key: "dtype"
    value {
      type: DT_FLOAT
    }
  }
}
node {
  name: "report_uninitialized_variables/IsVariableInitialized_68"
  op: "IsVariableInitialized"
  input: "seq2seq/output_projection/b/Adagrad"
  device: "/device:GPU:0"
  attr {
    key: "_class"
    value {
      list {
        s: "loc:@seq2seq/output_projection/b"
      }
    }
  }
  attr {
    key: "_output_shapes"
    value {
      list {
        shape {
        }
      }
    }
  }
  attr {
    key: "dtype"
    value {
      type: DT_FLOAT
    }
  }
}
node {
  name: "report_uninitialized_variables/stack"
  op: "Pack"
  input: "report_uninitialized_variables/IsVariableInitialized"
  input: "report_uninitialized_variables/IsVariableInitialized_1"
  input: "report_uninitialized_variables/IsVariableInitialized_2"
  input: "report_uninitialized_variables/IsVariableInitialized_3"
  input: "report_uninitialized_variables/IsVariableInitialized_4"
  input: "report_uninitialized_variables/IsVariableInitialized_5"
  input: "report_uninitialized_variables/IsVariableInitialized_6"
  input: "report_uninitialized_variables/IsVariableInitialized_7"
  input: "report_uninitialized_variables/IsVariableInitialized_8"
  input: "report_uninitialized_variables/IsVariableInitialized_9"
  input: "report_uninitialized_variables/IsVariableInitialized_10"
  input: "report_uninitialized_variables/IsVariableInitialized_11"
  input: "report_uninitialized_variables/IsVariableInitialized_12"
  input: "report_uninitialized_variables/IsVariableInitialized_13"
  input: "report_uninitialized_variables/IsVariableInitialized_14"
  input: "report_uninitialized_variables/IsVariableInitialized_15"
  input: "report_uninitialized_variables/IsVariableInitialized_16"
  input: "report_uninitialized_variables/IsVariableInitialized_17"
  input: "report_uninitialized_variables/IsVariableInitialized_18"
  input: "report_uninitialized_variables/IsVariableInitialized_19"
  input: "report_uninitialized_variables/IsVariableInitialized_20"
  input: "report_uninitialized_variables/IsVariableInitialized_21"
  input: "report_uninitialized_variables/IsVariableInitialized_22"
  input: "report_uninitialized_variables/IsVariableInitialized_23"
  input: "report_uninitialized_variables/IsVariableInitialized_24"
  input: "report_uninitialized_variables/IsVariableInitialized_25"
  input: "report_uninitialized_variables/IsVariableInitialized_26"
  input: "report_uninitialized_variables/IsVariableInitialized_27"
  input: "report_uninitialized_variables/IsVariableInitialized_28"
  input: "report_uninitialized_variables/IsVariableInitialized_29"
  input: "report_uninitialized_variables/IsVariableInitialized_30"
  input: "report_uninitialized_variables/IsVariableInitialized_31"
  input: "report_uninitialized_variables/IsVariableInitialized_32"
  input: "report_uninitialized_variables/IsVariableInitialized_33"
  input: "report_uninitialized_variables/IsVariableInitialized_34"
  input: "report_uninitialized_variables/IsVariableInitialized_35"
  input: "report_uninitialized_variables/IsVariableInitialized_36"
  input: "report_uninitialized_variables/IsVariableInitialized_37"
  input: "report_uninitialized_variables/IsVariableInitialized_38"
  input: "report_uninitialized_variables/IsVariableInitialized_39"
  input: "report_uninitialized_variables/IsVariableInitialized_40"
  input: "report_uninitialized_variables/IsVariableInitialized_41"
  input: "report_uninitialized_variables/IsVariableInitialized_42"
  input: "report_uninitialized_variables/IsVariableInitialized_43"
  input: "report_uninitialized_variables/IsVariableInitialized_44"
  input: "report_uninitialized_variables/IsVariableInitialized_45"
  input: "report_uninitialized_variables/IsVariableInitialized_46"
  input: "report_uninitialized_variables/IsVariableInitialized_47"
  input: "report_uninitialized_variables/IsVariableInitialized_48"
  input: "report_uninitialized_variables/IsVariableInitialized_49"
  input: "report_uninitialized_variables/IsVariableInitialized_50"
  input: "report_uninitialized_variables/IsVariableInitialized_51"
  input: "report_uninitialized_variables/IsVariableInitialized_52"
  input: "report_uninitialized_variables/IsVariableInitialized_53"
  input: "report_uninitialized_variables/IsVariableInitialized_54"
  input: "report_uninitialized_variables/IsVariableInitialized_55"
  input: "report_uninitialized_variables/IsVariableInitialized_56"
  input: "report_uninitialized_variables/IsVariableInitialized_57"
  input: "report_uninitialized_variables/IsVariableInitialized_58"
  input: "report_uninitialized_variables/IsVariableInitialized_59"
  input: "report_uninitialized_variables/IsVariableInitialized_60"
  input: "report_uninitialized_variables/IsVariableInitialized_61"
  input: "report_uninitialized_variables/IsVariableInitialized_62"
  input: "report_uninitialized_variables/IsVariableInitialized_63"
  input: "report_uninitialized_variables/IsVariableInitialized_64"
  input: "report_uninitialized_variables/IsVariableInitialized_65"
  input: "report_uninitialized_variables/IsVariableInitialized_66"
  input: "report_uninitialized_variables/IsVariableInitialized_67"
  input: "report_uninitialized_variables/IsVariableInitialized_68"
  device: "/device:CPU:0"
  attr {
    key: "N"
    value {
      i: 69
    }
  }
  attr {
    key: "T"
    value {
      type: DT_BOOL
    }
  }
  attr {
    key: "_output_shapes"
    value {
      list {
        shape {
          dim {
            size: 69
          }
        }
      }
    }
  }
  attr {
    key: "axis"
    value {
      i: 0
    }
  }
}
node {
  name: "report_uninitialized_variables/LogicalNot"
  op: "LogicalNot"
  input: "report_uninitialized_variables/stack"
  device: "/device:CPU:0"
  attr {
    key: "_output_shapes"
    value {
      list {
        shape {
          dim {
            size: 69
          }
        }
      }
    }
  }
}
node {
  name: "report_uninitialized_variables/Const"
  op: "Const"
  device: "/device:CPU:0"
  attr {
    key: "_output_shapes"
    value {
      list {
        shape {
          dim {
            size: 69
          }
        }
      }
    }
  }
  attr {
    key: "dtype"
    value {
      type: DT_STRING
    }
  }
  attr {
    key: "value"
    value {
      tensor {
        dtype: DT_STRING
        tensor_shape {
          dim {
            size: 69
          }
        }
        string_val: "seq2seq/embedding/embedding"
        string_val: "seq2seq/encoder/word_level_encoder/bidirectional_rnn/fw/lstm_cell/kernel"
        string_val: "seq2seq/encoder/word_level_encoder/bidirectional_rnn/fw/lstm_cell/bias"
        string_val: "seq2seq/encoder/word_level_encoder/bidirectional_rnn/bw/lstm_cell/kernel"
        string_val: "seq2seq/encoder/word_level_encoder/bidirectional_rnn/bw/lstm_cell/bias"
        string_val: "seq2seq/encoder/word_level_encoder/reduce_final_st/w_reduce_c"
        string_val: "seq2seq/encoder/word_level_encoder/reduce_final_st/w_reduce_h"
        string_val: "seq2seq/encoder/word_level_encoder/reduce_final_st/bias_reduce_c"
        string_val: "seq2seq/encoder/word_level_encoder/reduce_final_st/bias_reduce_h"
        string_val: "seq2seq/encoder/section_level_encoder/bidirectional_rnn/fw/lstm_cell/kernel"
        string_val: "seq2seq/encoder/section_level_encoder/bidirectional_rnn/fw/lstm_cell/bias"
        string_val: "seq2seq/encoder/section_level_encoder/bidirectional_rnn/bw/lstm_cell/kernel"
        string_val: "seq2seq/encoder/section_level_encoder/bidirectional_rnn/bw/lstm_cell/bias"
        string_val: "seq2seq/encoder/section_level_encoder/reduce_final_st/w_reduce_c"
        string_val: "seq2seq/encoder/section_level_encoder/reduce_final_st/w_reduce_h"
        string_val: "seq2seq/encoder/section_level_encoder/reduce_final_st/bias_reduce_c"
        string_val: "seq2seq/encoder/section_level_encoder/reduce_final_st/bias_reduce_h"
        string_val: "seq2seq/decoder/attention_decoder/W_h"
        string_val: "seq2seq/decoder/attention_decoder/W_h_s"
        string_val: "seq2seq/decoder/attention_decoder/v_sec"
        string_val: "seq2seq/decoder/attention_decoder/v"
        string_val: "seq2seq/decoder/attention_decoder/Linear/Matrix"
        string_val: "seq2seq/decoder/attention_decoder/Linear/Bias"
        string_val: "seq2seq/decoder/attention_decoder/lstm_cell/kernel"
        string_val: "seq2seq/decoder/attention_decoder/lstm_cell/bias"
        string_val: "seq2seq/decoder/attention_decoder/Attention/Linear/Matrix"
        string_val: "seq2seq/decoder/attention_decoder/Attention/Linear/Bias"
        string_val: "seq2seq/decoder/attention_decoder/Attention/attention_sections/Linear--Section-Features/Matrix"
        string_val: "seq2seq/decoder/attention_decoder/Attention/attention_sections/Linear--Section-Features/Bias"
        string_val: "seq2seq/decoder/attention_decoder/calculate_pgen/Linear/Matrix"
        string_val: "seq2seq/decoder/attention_decoder/calculate_pgen/Linear/Bias"
        string_val: "seq2seq/decoder/attention_decoder/AttnOutputProjection/Linear/Matrix"
        string_val: "seq2seq/decoder/attention_decoder/AttnOutputProjection/Linear/Bias"
        string_val: "seq2seq/output_projection/w"
        string_val: "seq2seq/output_projection/b"
        string_val: "global_step"
        string_val: "seq2seq/embedding/embedding/Adagrad"
        string_val: "seq2seq/encoder/word_level_encoder/bidirectional_rnn/fw/lstm_cell/kernel/Adagrad"
        string_val: "seq2seq/encoder/word_level_encoder/bidirectional_rnn/fw/lstm_cell/bias/Adagrad"
        string_val: "seq2seq/encoder/word_level_encoder/bidirectional_rnn/bw/lstm_cell/kernel/Adagrad"
        string_val: "seq2seq/encoder/word_level_encoder/bidirectional_rnn/bw/lstm_cell/bias/Adagrad"
        string_val: "seq2seq/encoder/word_level_encoder/reduce_final_st/w_reduce_h/Adagrad"
        string_val: "seq2seq/encoder/word_level_encoder/reduce_final_st/bias_reduce_h/Adagrad"
        string_val: "seq2seq/encoder/section_level_encoder/bidirectional_rnn/fw/lstm_cell/kernel/Adagrad"
        string_val: "seq2seq/encoder/section_level_encoder/bidirectional_rnn/fw/lstm_cell/bias/Adagrad"
        string_val: "seq2seq/encoder/section_level_encoder/bidirectional_rnn/bw/lstm_cell/kernel/Adagrad"
        string_val: "seq2seq/encoder/section_level_encoder/bidirectional_rnn/bw/lstm_cell/bias/Adagrad"
        string_val: "seq2seq/encoder/section_level_encoder/reduce_final_st/w_reduce_c/Adagrad"
        string_val: "seq2seq/encoder/section_level_encoder/reduce_final_st/w_reduce_h/Adagrad"
        string_val: "seq2seq/encoder/section_level_encoder/reduce_final_st/bias_reduce_c/Adagrad"
        string_val: "seq2seq/encoder/section_level_encoder/reduce_final_st/bias_reduce_h/Adagrad"
        string_val: "seq2seq/decoder/attention_decoder/W_h/Adagrad"
        string_val: "seq2seq/decoder/attention_decoder/W_h_s/Adagrad"
        string_val: "seq2seq/decoder/attention_decoder/v_sec/Adagrad"
        string_val: "seq2seq/decoder/attention_decoder/v/Adagrad"
        string_val: "seq2seq/decoder/attention_decoder/Linear/Matrix/Adagrad"
        string_val: "seq2seq/decoder/attention_decoder/Linear/Bias/Adagrad"
        string_val: "seq2seq/decoder/attention_decoder/lstm_cell/kernel/Adagrad"
        string_val: "seq2seq/decoder/attention_decoder/lstm_cell/bias/Adagrad"
        string_val: "seq2seq/decoder/attention_decoder/Attention/Linear/Matrix/Adagrad"
        string_val: "seq2seq/decoder/attention_decoder/Attention/Linear/Bias/Adagrad"
        string_val: "…"
        string_val: "…"
        string_val: "seq2seq/decoder/attention_decoder/calculate_pgen/Linear/Matrix/Adagrad"
        string_val: "seq2seq/decoder/attention_decoder/calculate_pgen/Linear/Bias/Adagrad"
        string_val: "seq2seq/decoder/attention_decoder/AttnOutputProjection/Linear/Matrix/Adagrad"
        string_val: "seq2seq/decoder/attention_decoder/AttnOutputProjection/Linear/Bias/Adagrad"
        string_val: "seq2seq/output_projection/w/Adagrad"
        string_val: "seq2seq/output_projection/b/Adagrad"
      }
    }
  }
}
node {
  name: "report_uninitialized_variables/boolean_mask/Shape"
  op: "Const"
  device: "/device:CPU:0"
  attr {
    key: "_output_shapes"
    value {
      list {
        shape {
          dim {
            size: 1
          }
        }
      }
    }
  }
  attr {
    key: "dtype"
    value {
      type: DT_INT32
    }
  }
  attr {
    key: "value"
    value {
      tensor {
        dtype: DT_INT32
        tensor_shape {
          dim {
            size: 1
          }
        }
        int_val: 69
      }
    }
  }
}
node {
  name: "report_uninitialized_variables/boolean_mask/strided_slice/stack"
  op: "Const"
  device: "/device:CPU:0"
  attr {
    key: "_output_shapes"
    value {
      list {
        shape {
          dim {
            size: 1
          }
        }
      }
    }
  }
  attr {
    key: "dtype"
    value {
      type: DT_INT32
    }
  }
  attr {
    key: "value"
    value {
      tensor {
        dtype: DT_INT32
        tensor_shape {
          dim {
            size: 1
          }
        }
        int_val: 0
      }
    }
  }
}
node {
  name: "report_uninitialized_variables/boolean_mask/strided_slice/stack_1"
  op: "Const"
  device: "/device:CPU:0"
  attr {
    key: "_output_shapes"
    value {
      list {
        shape {
          dim {
            size: 1
          }
        }
      }
    }
  }
  attr {
    key: "dtype"
    value {
      type: DT_INT32
    }
  }
  attr {
    key: "value"
    value {
      tensor {
        dtype: DT_INT32
        tensor_shape {
          dim {
            size: 1
          }
        }
        int_val: 1
      }
    }
  }
}
node {
  name: "report_uninitialized_variables/boolean_mask/strided_slice/stack_2"
  op: "Const"
  device: "/device:CPU:0"
  attr {
    key: "_output_shapes"
    value {
      list {
        shape {
          dim {
            size: 1
          }
        }
      }
    }
  }
  attr {
    key: "dtype"
    value {
      type: DT_INT32
    }
  }
  attr {
    key: "value"
    value {
      tensor {
        dtype: DT_INT32
        tensor_shape {
          dim {
            size: 1
          }
        }
        int_val: 1
      }
    }
  }
}
node {
  name: "report_uninitialized_variables/boolean_mask/strided_slice"
  op: "StridedSlice"
  input: "report_uninitialized_variables/boolean_mask/Shape"
  input: "report_uninitialized_variables/boolean_mask/strided_slice/stack"
  input: "report_uninitialized_variables/boolean_mask/strided_slice/stack_1"
  input: "report_uninitialized_variables/boolean_mask/strided_slice/stack_2"
  device: "/device:CPU:0"
  attr {
    key: "Index"
    value {
      type: DT_INT32
    }
  }
  attr {
    key: "T"
    value {
      type: DT_INT32
    }
  }
  attr {
    key: "_output_shapes"
    value {
      list {
        shape {
          dim {
            size: 1
          }
        }
      }
    }
  }
  attr {
    key: "begin_mask"
    value {
      i: 0
    }
  }
  attr {
    key: "ellipsis_mask"
    value {
      i: 0
    }
  }
  attr {
    key: "end_mask"
    value {
      i: 0
    }
  }
  attr {
    key: "new_axis_mask"
    value {
      i: 0
    }
  }
  attr {
    key: "shrink_axis_mask"
    value {
      i: 0
    }
  }
}
node {
  name: "report_uninitialized_variables/boolean_mask/Prod/reduction_indices"
  op: "Const"
  device: "/device:CPU:0"
  attr {
    key: "_output_shapes"
    value {
      list {
        shape {
          dim {
            size: 1
          }
        }
      }
    }
  }
  attr {
    key: "dtype"
    value {
      type: DT_INT32
    }
  }
  attr {
    key: "value"
    value {
      tensor {
        dtype: DT_INT32
        tensor_shape {
          dim {
            size: 1
          }
        }
        int_val: 0
      }
    }
  }
}
node {
  name: "report_uninitialized_variables/boolean_mask/Prod"
  op: "Prod"
  input: "report_uninitialized_variables/boolean_mask/strided_slice"
  input: "report_uninitialized_variables/boolean_mask/Prod/reduction_indices"
  device: "/device:CPU:0"
  attr {
    key: "T"
    value {
      type: DT_INT32
    }
  }
  attr {
    key: "Tidx"
    value {
      type: DT_INT32
    }
  }
  attr {
    key: "_output_shapes"
    value {
      list {
        shape {
        }
      }
    }
  }
  attr {
    key: "keep_dims"
    value {
      b: false
    }
  }
}
node {
  name: "report_uninitialized_variables/boolean_mask/Shape_1"
  op: "Const"
  device: "/device:CPU:0"
  attr {
    key: "_output_shapes"
    value {
      list {
        shape {
          dim {
            size: 1
          }
        }
      }
    }
  }
  attr {
    key: "dtype"
    value {
      type: DT_INT32
    }
  }
  attr {
    key: "value"
    value {
      tensor {
        dtype: DT_INT32
        tensor_shape {
          dim {
            size: 1
          }
        }
        int_val: 69
      }
    }
  }
}
node {
  name: "report_uninitialized_variables/boolean_mask/strided_slice_1/stack"
  op: "Const"
  device: "/device:CPU:0"
  attr {
    key: "_output_shapes"
    value {
      list {
        shape {
          dim {
            size: 1
          }
        }
      }
    }
  }
  attr {
    key: "dtype"
    value {
      type: DT_INT32
    }
  }
  attr {
    key: "value"
    value {
      tensor {
        dtype: DT_INT32
        tensor_shape {
          dim {
            size: 1
          }
        }
        int_val: 0
      }
    }
  }
}
node {
  name: "report_uninitialized_variables/boolean_mask/strided_slice_1/stack_1"
  op: "Const"
  device: "/device:CPU:0"
  attr {
    key: "_output_shapes"
    value {
      list {
        shape {
          dim {
            size: 1
          }
        }
      }
    }
  }
  attr {
    key: "dtype"
    value {
      type: DT_INT32
    }
  }
  attr {
    key: "value"
    value {
      tensor {
        dtype: DT_INT32
        tensor_shape {
          dim {
            size: 1
          }
        }
        int_val: 0
      }
    }
  }
}
node {
  name: "report_uninitialized_variables/boolean_mask/strided_slice_1/stack_2"
  op: "Const"
  device: "/device:CPU:0"
  attr {
    key: "_output_shapes"
    value {
      list {
        shape {
          dim {
            size: 1
          }
        }
      }
    }
  }
  attr {
    key: "dtype"
    value {
      type: DT_INT32
    }
  }
  attr {
    key: "value"
    value {
      tensor {
        dtype: DT_INT32
        tensor_shape {
          dim {
            size: 1
          }
        }
        int_val: 1
      }
    }
  }
}
node {
  name: "report_uninitialized_variables/boolean_mask/strided_slice_1"
  op: "StridedSlice"
  input: "report_uninitialized_variables/boolean_mask/Shape_1"
  input: "report_uninitialized_variables/boolean_mask/strided_slice_1/stack"
  input: "report_uninitialized_variables/boolean_mask/strided_slice_1/stack_1"
  input: "report_uninitialized_variables/boolean_mask/strided_slice_1/stack_2"
  device: "/device:CPU:0"
  attr {
    key: "Index"
    value {
      type: DT_INT32
    }
  }
  attr {
    key: "T"
    value {
      type: DT_INT32
    }
  }
  attr {
    key: "_output_shapes"
    value {
      list {
        shape {
          dim {
          }
        }
      }
    }
  }
  attr {
    key: "begin_mask"
    value {
      i: 1
    }
  }
  attr {
    key: "ellipsis_mask"
    value {
      i: 0
    }
  }
  attr {
    key: "end_mask"
    value {
      i: 0
    }
  }
  attr {
    key: "new_axis_mask"
    value {
      i: 0
    }
  }
  attr {
    key: "shrink_axis_mask"
    value {
      i: 0
    }
  }
}
node {
  name: "report_uninitialized_variables/boolean_mask/Shape_2"
  op: "Const"
  device: "/device:CPU:0"
  attr {
    key: "_output_shapes"
    value {
      list {
        shape {
          dim {
            size: 1
          }
        }
      }
    }
  }
  attr {
    key: "dtype"
    value {
      type: DT_INT32
    }
  }
  attr {
    key: "value"
    value {
      tensor {
        dtype: DT_INT32
        tensor_shape {
          dim {
            size: 1
          }
        }
        int_val: 69
      }
    }
  }
}
node {
  name: "report_uninitialized_variables/boolean_mask/strided_slice_2/stack"
  op: "Const"
  device: "/device:CPU:0"
  attr {
    key: "_output_shapes"
    value {
      list {
        shape {
          dim {
            size: 1
          }
        }
      }
    }
  }
  attr {
    key: "dtype"
    value {
      type: DT_INT32
    }
  }
  attr {
    key: "value"
    value {
      tensor {
        dtype: DT_INT32
        tensor_shape {
          dim {
            size: 1
          }
        }
        int_val: 1
      }
    }
  }
}
node {
  name: "report_uninitialized_variables/boolean_mask/strided_slice_2/stack_1"
  op: "Const"
  device: "/device:CPU:0"
  attr {
    key: "_output_shapes"
    value {
      list {
        shape {
          dim {
            size: 1
          }
        }
      }
    }
  }
  attr {
    key: "dtype"
    value {
      type: DT_INT32
    }
  }
  attr {
    key: "value"
    value {
      tensor {
        dtype: DT_INT32
        tensor_shape {
          dim {
            size: 1
          }
        }
        int_val: 0
      }
    }
  }
}
node {
  name: "report_uninitialized_variables/boolean_mask/strided_slice_2/stack_2"
  op: "Const"
  device: "/device:CPU:0"
  attr {
    key: "_output_shapes"
    value {
      list {
        shape {
          dim {
            size: 1
          }
        }
      }
    }
  }
  attr {
    key: "dtype"
    value {
      type: DT_INT32
    }
  }
  attr {
    key: "value"
    value {
      tensor {
        dtype: DT_INT32
        tensor_shape {
          dim {
            size: 1
          }
        }
        int_val: 1
      }
    }
  }
}
node {
  name: "report_uninitialized_variables/boolean_mask/strided_slice_2"
  op: "StridedSlice"
  input: "report_uninitialized_variables/boolean_mask/Shape_2"
  input: "report_uninitialized_variables/boolean_mask/strided_slice_2/stack"
  input: "report_uninitialized_variables/boolean_mask/strided_slice_2/stack_1"
  input: "report_uninitialized_variables/boolean_mask/strided_slice_2/stack_2"
  device: "/device:CPU:0"
  attr {
    key: "Index"
    value {
      type: DT_INT32
    }
  }
  attr {
    key: "T"
    value {
      type: DT_INT32
    }
  }
  attr {
    key: "_output_shapes"
    value {
      list {
        shape {
          dim {
          }
        }
      }
    }
  }
  attr {
    key: "begin_mask"
    value {
      i: 0
    }
  }
  attr {
    key: "ellipsis_mask"
    value {
      i: 0
    }
  }
  attr {
    key: "end_mask"
    value {
      i: 1
    }
  }
  attr {
    key: "new_axis_mask"
    value {
      i: 0
    }
  }
  attr {
    key: "shrink_axis_mask"
    value {
      i: 0
    }
  }
}
node {
  name: "report_uninitialized_variables/boolean_mask/concat/values_1"
  op: "Pack"
  input: "report_uninitialized_variables/boolean_mask/Prod"
  device: "/device:CPU:0"
  attr {
    key: "N"
    value {
      i: 1
    }
  }
  attr {
    key: "T"
    value {
      type: DT_INT32
    }
  }
  attr {
    key: "_output_shapes"
    value {
      list {
        shape {
          dim {
            size: 1
          }
        }
      }
    }
  }
  attr {
    key: "axis"
    value {
      i: 0
    }
  }
}
node {
  name: "report_uninitialized_variables/boolean_mask/concat/axis"
  op: "Const"
  device: "/device:CPU:0"
  attr {
    key: "_output_shapes"
    value {
      list {
        shape {
        }
      }
    }
  }
  attr {
    key: "dtype"
    value {
      type: DT_INT32
    }
  }
  attr {
    key: "value"
    value {
      tensor {
        dtype: DT_INT32
        tensor_shape {
        }
        int_val: 0
      }
    }
  }
}
node {
  name: "report_uninitialized_variables/boolean_mask/concat"
  op: "ConcatV2"
  input: "report_uninitialized_variables/boolean_mask/strided_slice_1"
  input: "report_uninitialized_variables/boolean_mask/concat/values_1"
  input: "report_uninitialized_variables/boolean_mask/strided_slice_2"
  input: "report_uninitialized_variables/boolean_mask/concat/axis"
  device: "/device:CPU:0"
  attr {
    key: "N"
    value {
      i: 3
    }
  }
  attr {
    key: "T"
    value {
      type: DT_INT32
    }
  }
  attr {
    key: "Tidx"
    value {
      type: DT_INT32
    }
  }
  attr {
    key: "_output_shapes"
    value {
      list {
        shape {
          dim {
            size: 1
          }
        }
      }
    }
  }
}
node {
  name: "report_uninitialized_variables/boolean_mask/Reshape"
  op: "Reshape"
  input: "report_uninitialized_variables/Const"
  input: "report_uninitialized_variables/boolean_mask/concat"
  device: "/device:CPU:0"
  attr {
    key: "T"
    value {
      type: DT_STRING
    }
  }
  attr {
    key: "Tshape"
    value {
      type: DT_INT32
    }
  }
  attr {
    key: "_output_shapes"
    value {
      list {
        shape {
          dim {
            size: 69
          }
        }
      }
    }
  }
}
node {
  name: "report_uninitialized_variables/boolean_mask/Reshape_1/shape"
  op: "Const"
  device: "/device:CPU:0"
  attr {
    key: "_output_shapes"
    value {
      list {
        shape {
          dim {
            size: 1
          }
        }
      }
    }
  }
  attr {
    key: "dtype"
    value {
      type: DT_INT32
    }
  }
  attr {
    key: "value"
    value {
      tensor {
        dtype: DT_INT32
        tensor_shape {
          dim {
            size: 1
          }
        }
        int_val: -1
      }
    }
  }
}
node {
  name: "report_uninitialized_variables/boolean_mask/Reshape_1"
  op: "Reshape"
  input: "report_uninitialized_variables/LogicalNot"
  input: "report_uninitialized_variables/boolean_mask/Reshape_1/shape"
  device: "/device:CPU:0"
  attr {
    key: "T"
    value {
      type: DT_BOOL
    }
  }
  attr {
    key: "Tshape"
    value {
      type: DT_INT32
    }
  }
  attr {
    key: "_output_shapes"
    value {
      list {
        shape {
          dim {
            size: 69
          }
        }
      }
    }
  }
}
node {
  name: "report_uninitialized_variables/boolean_mask/Where"
  op: "Where"
  input: "report_uninitialized_variables/boolean_mask/Reshape_1"
  device: "/device:CPU:0"
  attr {
    key: "T"
    value {
      type: DT_BOOL
    }
  }
  attr {
    key: "_output_shapes"
    value {
      list {
        shape {
          dim {
            size: -1
          }
          dim {
            size: 1
          }
        }
      }
    }
  }
}
node {
  name: "report_uninitialized_variables/boolean_mask/Squeeze"
  op: "Squeeze"
  input: "report_uninitialized_variables/boolean_mask/Where"
  device: "/device:CPU:0"
  attr {
    key: "T"
    value {
      type: DT_INT64
    }
  }
  attr {
    key: "_output_shapes"
    value {
      list {
        shape {
          dim {
            size: -1
          }
        }
      }
    }
  }
  attr {
    key: "squeeze_dims"
    value {
      list {
        i: 1
      }
    }
  }
}
node {
  name: "report_uninitialized_variables/boolean_mask/GatherV2/axis"
  op: "Const"
  device: "/device:CPU:0"
  attr {
    key: "_output_shapes"
    value {
      list {
        shape {
        }
      }
    }
  }
  attr {
    key: "dtype"
    value {
      type: DT_INT32
    }
  }
  attr {
    key: "value"
    value {
      tensor {
        dtype: DT_INT32
        tensor_shape {
        }
        int_val: 0
      }
    }
  }
}
node {
  name: "report_uninitialized_variables/boolean_mask/GatherV2"
  op: "GatherV2"
  input: "report_uninitialized_variables/boolean_mask/Reshape"
  input: "report_uninitialized_variables/boolean_mask/Squeeze"
  input: "report_uninitialized_variables/boolean_mask/GatherV2/axis"
  device: "/device:CPU:0"
  attr {
    key: "Taxis"
    value {
      type: DT_INT32
    }
  }
  attr {
    key: "Tindices"
    value {
      type: DT_INT64
    }
  }
  attr {
    key: "Tparams"
    value {
      type: DT_STRING
    }
  }
  attr {
    key: "_output_shapes"
    value {
      list {
        shape {
          dim {
            size: -1
          }
        }
      }
    }
  }
  attr {
    key: "batch_dims"
    value {
      i: 0
    }
  }
}
node {
  name: "init/NoOp"
  op: "NoOp"
  input: "^global_step/Assign"
}
node {
  name: "init/NoOp_1"
  op: "NoOp"
  input: "^seq2seq/decoder/attention_decoder/Attention/Linear/Bias/Adagrad/Assign"
  input: "^seq2seq/decoder/attention_decoder/Attention/Linear/Bias/Assign"
  input: "^seq2seq/decoder/attention_decoder/Attention/Linear/Matrix/Adagrad/Assign"
  input: "^seq2seq/decoder/attention_decoder/Attention/Linear/Matrix/Assign"
  input: "^seq2seq/decoder/attention_decoder/Attention/attention_sections/Linear--Section-Features/Bias/Adagrad/Assign"
  input: "^seq2seq/decoder/attention_decoder/Attention/attention_sections/Linear--Section-Features/Bias/Assign"
  input: "^seq2seq/decoder/attention_decoder/Attention/attention_sections/Linear--Section-Features/Matrix/Adagrad/Assign"
  input: "^seq2seq/decoder/attention_decoder/Attention/attention_sections/Linear--Section-Features/Matrix/Assign"
  input: "^seq2seq/decoder/attention_decoder/AttnOutputProjection/Linear/Bias/Adagrad/Assign"
  input: "^seq2seq/decoder/attention_decoder/AttnOutputProjection/Linear/Bias/Assign"
  input: "^seq2seq/decoder/attention_decoder/AttnOutputProjection/Linear/Matrix/Adagrad/Assign"
  input: "^seq2seq/decoder/attention_decoder/AttnOutputProjection/Linear/Matrix/Assign"
  input: "^seq2seq/decoder/attention_decoder/Linear/Bias/Adagrad/Assign"
  input: "^seq2seq/decoder/attention_decoder/Linear/Bias/Assign"
  input: "^seq2seq/decoder/attention_decoder/Linear/Matrix/Adagrad/Assign"
  input: "^seq2seq/decoder/attention_decoder/Linear/Matrix/Assign"
  input: "^seq2seq/decoder/attention_decoder/W_h/Adagrad/Assign"
  input: "^seq2seq/decoder/attention_decoder/W_h/Assign"
  input: "^seq2seq/decoder/attention_decoder/W_h_s/Adagrad/Assign"
  input: "^seq2seq/decoder/attention_decoder/W_h_s/Assign"
  input: "^seq2seq/decoder/attention_decoder/calculate_pgen/Linear/Bias/Adagrad/Assign"
  input: "^seq2seq/decoder/attention_decoder/calculate_pgen/Linear/Bias/Assign"
  input: "^seq2seq/decoder/attention_decoder/calculate_pgen/Linear/Matrix/Adagrad/Assign"
  input: "^seq2seq/decoder/attention_decoder/calculate_pgen/Linear/Matrix/Assign"
  input: "^seq2seq/decoder/attention_decoder/lstm_cell/bias/Adagrad/Assign"
  input: "^seq2seq/decoder/attention_decoder/lstm_cell/bias/Assign"
  input: "^seq2seq/decoder/attention_decoder/lstm_cell/kernel/Adagrad/Assign"
  input: "^seq2seq/decoder/attention_decoder/lstm_cell/kernel/Assign"
  input: "^seq2seq/decoder/attention_decoder/v/Adagrad/Assign"
  input: "^seq2seq/decoder/attention_decoder/v/Assign"
  input: "^seq2seq/decoder/attention_decoder/v_sec/Adagrad/Assign"
  input: "^seq2seq/decoder/attention_decoder/v_sec/Assign"
  input: "^seq2seq/embedding/embedding/Adagrad/Assign"
  input: "^seq2seq/embedding/embedding/Assign"
  input: "^seq2seq/encoder/section_level_encoder/bidirectional_rnn/bw/lstm_cell/bias/Adagrad/Assign"
  input: "^seq2seq/encoder/section_level_encoder/bidirectional_rnn/bw/lstm_cell/bias/Assign"
  input: "^seq2seq/encoder/section_level_encoder/bidirectional_rnn/bw/lstm_cell/kernel/Adagrad/Assign"
  input: "^seq2seq/encoder/section_level_encoder/bidirectional_rnn/bw/lstm_cell/kernel/Assign"
  input: "^seq2seq/encoder/section_level_encoder/bidirectional_rnn/fw/lstm_cell/bias/Adagrad/Assign"
  input: "^seq2seq/encoder/section_level_encoder/bidirectional_rnn/fw/lstm_cell/bias/Assign"
  input: "^seq2seq/encoder/section_level_encoder/bidirectional_rnn/fw/lstm_cell/kernel/Adagrad/Assign"
  input: "^seq2seq/encoder/section_level_encoder/bidirectional_rnn/fw/lstm_cell/kernel/Assign"
  input: "^seq2seq/encoder/section_level_encoder/reduce_final_st/bias_reduce_c/Adagrad/Assign"
  input: "^seq2seq/encoder/section_level_encoder/reduce_final_st/bias_reduce_c/Assign"
  input: "^seq2seq/encoder/section_level_encoder/reduce_final_st/bias_reduce_h/Adagrad/Assign"
  input: "^seq2seq/encoder/section_level_encoder/reduce_final_st/bias_reduce_h/Assign"
  input: "^seq2seq/encoder/section_level_encoder/reduce_final_st/w_reduce_c/Adagrad/Assign"
  input: "^seq2seq/encoder/section_level_encoder/reduce_final_st/w_reduce_c/Assign"
  input: "^seq2seq/encoder/section_level_encoder/reduce_final_st/w_reduce_h/Adagrad/Assign"
  input: "^seq2seq/encoder/section_level_encoder/reduce_final_st/w_reduce_h/Assign"
  input: "^seq2seq/encoder/word_level_encoder/bidirectional_rnn/bw/lstm_cell/bias/Adagrad/Assign"
  input: "^seq2seq/encoder/word_level_encoder/bidirectional_rnn/bw/lstm_cell/bias/Assign"
  input: "^seq2seq/encoder/word_level_encoder/bidirectional_rnn/bw/lstm_cell/kernel/Adagrad/Assign"
  input: "^seq2seq/encoder/word_level_encoder/bidirectional_rnn/bw/lstm_cell/kernel/Assign"
  input: "^seq2seq/encoder/word_level_encoder/bidirectional_rnn/fw/lstm_cell/bias/Adagrad/Assign"
  input: "^seq2seq/encoder/word_level_encoder/bidirectional_rnn/fw/lstm_cell/bias/Assign"
  input: "^seq2seq/encoder/word_level_encoder/bidirectional_rnn/fw/lstm_cell/kernel/Adagrad/Assign"
  input: "^seq2seq/encoder/word_level_encoder/bidirectional_rnn/fw/lstm_cell/kernel/Assign"
  input: "^seq2seq/encoder/word_level_encoder/reduce_final_st/bias_reduce_c/Assign"
  input: "^seq2seq/encoder/word_level_encoder/reduce_final_st/bias_reduce_h/Adagrad/Assign"
  input: "^seq2seq/encoder/word_level_encoder/reduce_final_st/bias_reduce_h/Assign"
  input: "^seq2seq/encoder/word_level_encoder/reduce_final_st/w_reduce_c/Assign"
  input: "^seq2seq/encoder/word_level_encoder/reduce_final_st/w_reduce_h/Adagrad/Assign"
  input: "^seq2seq/encoder/word_level_encoder/reduce_final_st/w_reduce_h/Assign"
  input: "^seq2seq/output_projection/b/Adagrad/Assign"
  input: "^seq2seq/output_projection/b/Assign"
  input: "^seq2seq/output_projection/w/Adagrad/Assign"
  input: "^seq2seq/output_projection/w/Assign"
  device: "/device:GPU:0"
}
node {
  name: "init"
  op: "NoOp"
  input: "^init/NoOp"
  input: "^init/NoOp_1"
}
node {
  name: "init_1"
  op: "NoOp"
}
node {
  name: "init_all_tables"
  op: "NoOp"
}
node {
  name: "group_deps"
  op: "NoOp"
  input: "^init_1"
  input: "^init_all_tables"
}
versions {
  producer: 134
}
